{"format": "graph-model", "generatedBy": "2.4.1", "convertedBy": "TensorFlow.js Converter v3.0.0", "signature": {"outputs": {"detector/yolo-v3/Conv_6/BiasAdd": {"name": "detector/yolo-v3/Conv_6/BiasAdd"}}}, "modelTopology": {"node": [{"name": "Placeholder", "op": "Placeholder", "attr": {"shape": {"shape": {"dim": [{"size": "-1"}, {"size": "416"}, {"size": "416"}, {"size": "3"}]}}, "dtype": {"type": "DT_FLOAT"}}}, {"name": "detector/darknet-53/Pad/paddings", "op": "Const", "attr": {"value": {"tensor": {"dtype": "DT_INT32", "tensorShape": {"dim": [{"size": "4"}, {"size": "2"}]}}}, "dtype": {"type": "DT_INT32"}}}, {"name": "detector/darknet-53/Pad_1/paddings", "op": "Const", "attr": {"value": {"tensor": {"dtype": "DT_INT32", "tensorShape": {"dim": [{"size": "4"}, {"size": "2"}]}}}, "dtype": {"type": "DT_INT32"}}}, {"name": "detector/darknet-53/Pad_2/paddings", "op": "Const", "attr": {"dtype": {"type": "DT_INT32"}, "value": {"tensor": {"dtype": "DT_INT32", "tensorShape": {"dim": [{"size": "4"}, {"size": "2"}]}}}}}, {"name": "detector/darknet-53/Pad_3/paddings", "op": "Const", "attr": {"value": {"tensor": {"dtype": "DT_INT32", "tensorShape": {"dim": [{"size": "4"}, {"size": "2"}]}}}, "dtype": {"type": "DT_INT32"}}}, {"name": "detector/darknet-53/Pad_4/paddings", "op": "Const", "attr": {"dtype": {"type": "DT_INT32"}, "value": {"tensor": {"dtype": "DT_INT32", "tensorShape": {"dim": [{"size": "4"}, {"size": "2"}]}}}}}, {"name": "detector/yolo-v3/Conv_6/weights", "op": "Const", "attr": {"value": {"tensor": {"dtype": "DT_FLOAT", "tensorShape": {"dim": [{"size": "1"}, {"size": "1"}, {"size": "1024"}, {"size": "51"}]}}}, "dtype": {"type": "DT_FLOAT"}}}, {"name": "detector/yolo-v3/Conv_6/biases", "op": "Const", "attr": {"value": {"tensor": {"dtype": "DT_FLOAT", "tensorShape": {"dim": [{"size": "51"}]}}}, "dtype": {"type": "DT_FLOAT"}}}, {"name": "detector/darknet-53/Conv/Conv2D_weights", "op": "Const", "attr": {"value": {"tensor": {"dtype": "DT_FLOAT", "tensorShape": {"dim": [{"size": "3"}, {"size": "3"}, {"size": "3"}, {"size": "32"}]}}}, "dtype": {"type": "DT_FLOAT"}}}, {"name": "detector/darknet-53/Conv/Conv2D_bn_offset", "op": "Const", "attr": {"value": {"tensor": {"dtype": "DT_FLOAT", "tensorShape": {"dim": [{"size": "32"}]}}}, "dtype": {"type": "DT_FLOAT"}}}, {"name": "detector/darknet-53/Conv_1/Conv2D_weights", "op": "Const", "attr": {"value": {"tensor": {"dtype": "DT_FLOAT", "tensorShape": {"dim": [{"size": "3"}, {"size": "3"}, {"size": "32"}, {"size": "64"}]}}}, "dtype": {"type": "DT_FLOAT"}}}, {"name": "detector/darknet-53/Conv_37/Conv2D_weights", "op": "Const", "attr": {"value": {"tensor": {"dtype": "DT_FLOAT", "tensorShape": {"dim": [{"size": "1"}, {"size": "1"}, {"size": "512"}, {"size": "256"}]}}}, "dtype": {"type": "DT_FLOAT"}}}, {"name": "detector/darknet-53/Conv_1/Conv2D_bn_offset", "op": "Const", "attr": {"value": {"tensor": {"dtype": "DT_FLOAT", "tensorShape": {"dim": [{"size": "64"}]}}}, "dtype": {"type": "DT_FLOAT"}}}, {"name": "detector/darknet-53/Conv_50/Conv2D_weights", "op": "Const", "attr": {"value": {"tensor": {"dtype": "DT_FLOAT", "tensorShape": {"dim": [{"size": "1"}, {"size": "1"}, {"size": "1024"}, {"size": "512"}]}}}, "dtype": {"type": "DT_FLOAT"}}}, {"name": "detector/darknet-53/Conv_2/Conv2D_weights", "op": "Const", "attr": {"value": {"tensor": {"dtype": "DT_FLOAT", "tensorShape": {"dim": [{"size": "1"}, {"size": "1"}, {"size": "64"}, {"size": "32"}]}}}, "dtype": {"type": "DT_FLOAT"}}}, {"name": "detector/darknet-53/Conv_37/Conv2D_bn_offset", "op": "Const", "attr": {"value": {"tensor": {"dtype": "DT_FLOAT", "tensorShape": {"dim": [{"size": "256"}]}}}, "dtype": {"type": "DT_FLOAT"}}}, {"name": "detector/darknet-53/Conv_2/Conv2D_bn_offset", "op": "Const", "attr": {"value": {"tensor": {"dtype": "DT_FLOAT", "tensorShape": {"dim": [{"size": "32"}]}}}, "dtype": {"type": "DT_FLOAT"}}}, {"name": "detector/yolo-v3/Conv_3/Conv2D_weights", "op": "Const", "attr": {"dtype": {"type": "DT_FLOAT"}, "value": {"tensor": {"dtype": "DT_FLOAT", "tensorShape": {"dim": [{"size": "3"}, {"size": "3"}, {"size": "512"}, {"size": "1024"}]}}}}}, {"name": "detector/darknet-53/Conv_3/Conv2D_weights", "op": "Const", "attr": {"value": {"tensor": {"dtype": "DT_FLOAT", "tensorShape": {"dim": [{"size": "3"}, {"size": "3"}, {"size": "32"}, {"size": "64"}]}}}, "dtype": {"type": "DT_FLOAT"}}}, {"name": "detector/darknet-53/Conv_3/Conv2D_bn_offset", "op": "Const", "attr": {"value": {"tensor": {"dtype": "DT_FLOAT", "tensorShape": {"dim": [{"size": "64"}]}}}, "dtype": {"type": "DT_FLOAT"}}}, {"name": "detector/darknet-53/Conv_38/Conv2D_weights", "op": "Const", "attr": {"value": {"tensor": {"dtype": "DT_FLOAT", "tensorShape": {"dim": [{"size": "3"}, {"size": "3"}, {"size": "256"}, {"size": "512"}]}}}, "dtype": {"type": "DT_FLOAT"}}}, {"name": "detector/darknet-53/Conv_4/Conv2D_weights", "op": "Const", "attr": {"value": {"tensor": {"dtype": "DT_FLOAT", "tensorShape": {"dim": [{"size": "3"}, {"size": "3"}, {"size": "64"}, {"size": "128"}]}}}, "dtype": {"type": "DT_FLOAT"}}}, {"name": "detector/darknet-53/Conv_50/Conv2D_bn_offset", "op": "Const", "attr": {"value": {"tensor": {"dtype": "DT_FLOAT", "tensorShape": {"dim": [{"size": "512"}]}}}, "dtype": {"type": "DT_FLOAT"}}}, {"name": "detector/darknet-53/Conv_4/Conv2D_bn_offset", "op": "Const", "attr": {"dtype": {"type": "DT_FLOAT"}, "value": {"tensor": {"dtype": "DT_FLOAT", "tensorShape": {"dim": [{"size": "128"}]}}}}}, {"name": "detector/darknet-53/Conv_38/Conv2D_bn_offset", "op": "Const", "attr": {"value": {"tensor": {"dtype": "DT_FLOAT", "tensorShape": {"dim": [{"size": "512"}]}}}, "dtype": {"type": "DT_FLOAT"}}}, {"name": "detector/darknet-53/Conv_5/Conv2D_weights", "op": "Const", "attr": {"value": {"tensor": {"dtype": "DT_FLOAT", "tensorShape": {"dim": [{"size": "1"}, {"size": "1"}, {"size": "128"}, {"size": "64"}]}}}, "dtype": {"type": "DT_FLOAT"}}}, {"name": "detector/yolo-v3/Conv_5/Conv2D_weights", "op": "Const", "attr": {"value": {"tensor": {"dtype": "DT_FLOAT", "tensorShape": {"dim": [{"size": "3"}, {"size": "3"}, {"size": "512"}, {"size": "1024"}]}}}, "dtype": {"type": "DT_FLOAT"}}}, {"name": "detector/darknet-53/Conv_5/Conv2D_bn_offset", "op": "Const", "attr": {"dtype": {"type": "DT_FLOAT"}, "value": {"tensor": {"dtype": "DT_FLOAT", "tensorShape": {"dim": [{"size": "64"}]}}}}}, {"name": "detector/darknet-53/Conv_6/Conv2D_weights", "op": "Const", "attr": {"value": {"tensor": {"dtype": "DT_FLOAT", "tensorShape": {"dim": [{"size": "3"}, {"size": "3"}, {"size": "64"}, {"size": "128"}]}}}, "dtype": {"type": "DT_FLOAT"}}}, {"name": "detector/darknet-53/Conv_6/Conv2D_bn_offset", "op": "Const", "attr": {"dtype": {"type": "DT_FLOAT"}, "value": {"tensor": {"dtype": "DT_FLOAT", "tensorShape": {"dim": [{"size": "128"}]}}}}}, {"name": "detector/darknet-53/Conv_39/Conv2D_weights", "op": "Const", "attr": {"value": {"tensor": {"dtype": "DT_FLOAT", "tensorShape": {"dim": [{"size": "1"}, {"size": "1"}, {"size": "512"}, {"size": "256"}]}}}, "dtype": {"type": "DT_FLOAT"}}}, {"name": "detector/darknet-53/Conv_7/Conv2D_weights", "op": "Const", "attr": {"value": {"tensor": {"dtype": "DT_FLOAT", "tensorShape": {"dim": [{"size": "1"}, {"size": "1"}, {"size": "128"}, {"size": "64"}]}}}, "dtype": {"type": "DT_FLOAT"}}}, {"name": "detector/darknet-53/Conv_7/Conv2D_bn_offset", "op": "Const", "attr": {"dtype": {"type": "DT_FLOAT"}, "value": {"tensor": {"dtype": "DT_FLOAT", "tensorShape": {"dim": [{"size": "64"}]}}}}}, {"name": "detector/darknet-53/Conv_39/Conv2D_bn_offset", "op": "Const", "attr": {"dtype": {"type": "DT_FLOAT"}, "value": {"tensor": {"dtype": "DT_FLOAT", "tensorShape": {"dim": [{"size": "256"}]}}}}}, {"name": "detector/darknet-53/Conv_8/Conv2D_weights", "op": "Const", "attr": {"value": {"tensor": {"dtype": "DT_FLOAT", "tensorShape": {"dim": [{"size": "3"}, {"size": "3"}, {"size": "64"}, {"size": "128"}]}}}, "dtype": {"type": "DT_FLOAT"}}}, {"name": "detector/darknet-53/Conv_51/Conv2D_weights", "op": "Const", "attr": {"value": {"tensor": {"dtype": "DT_FLOAT", "tensorShape": {"dim": [{"size": "3"}, {"size": "3"}, {"size": "512"}, {"size": "1024"}]}}}, "dtype": {"type": "DT_FLOAT"}}}, {"name": "detector/darknet-53/Conv_8/Conv2D_bn_offset", "op": "Const", "attr": {"value": {"tensor": {"dtype": "DT_FLOAT", "tensorShape": {"dim": [{"size": "128"}]}}}, "dtype": {"type": "DT_FLOAT"}}}, {"name": "detector/darknet-53/Conv_9/Conv2D_weights", "op": "Const", "attr": {"value": {"tensor": {"dtype": "DT_FLOAT", "tensorShape": {"dim": [{"size": "3"}, {"size": "3"}, {"size": "128"}, {"size": "256"}]}}}, "dtype": {"type": "DT_FLOAT"}}}, {"name": "detector/darknet-53/Conv_40/Conv2D_weights", "op": "Const", "attr": {"dtype": {"type": "DT_FLOAT"}, "value": {"tensor": {"dtype": "DT_FLOAT", "tensorShape": {"dim": [{"size": "3"}, {"size": "3"}, {"size": "256"}, {"size": "512"}]}}}}}, {"name": "detector/darknet-53/Conv_9/Conv2D_bn_offset", "op": "Const", "attr": {"value": {"tensor": {"dtype": "DT_FLOAT", "tensorShape": {"dim": [{"size": "256"}]}}}, "dtype": {"type": "DT_FLOAT"}}}, {"name": "detector/yolo-v3/Conv_3/Conv2D_bn_offset", "op": "Const", "attr": {"value": {"tensor": {"dtype": "DT_FLOAT", "tensorShape": {"dim": [{"size": "1024"}]}}}, "dtype": {"type": "DT_FLOAT"}}}, {"name": "detector/darknet-53/Conv_10/Conv2D_weights", "op": "Const", "attr": {"dtype": {"type": "DT_FLOAT"}, "value": {"tensor": {"dtype": "DT_FLOAT", "tensorShape": {"dim": [{"size": "1"}, {"size": "1"}, {"size": "256"}, {"size": "128"}]}}}}}, {"name": "detector/darknet-53/Conv_40/Conv2D_bn_offset", "op": "Const", "attr": {"value": {"tensor": {"dtype": "DT_FLOAT", "tensorShape": {"dim": [{"size": "512"}]}}}, "dtype": {"type": "DT_FLOAT"}}}, {"name": "detector/darknet-53/Conv_10/Conv2D_bn_offset", "op": "Const", "attr": {"value": {"tensor": {"dtype": "DT_FLOAT", "tensorShape": {"dim": [{"size": "128"}]}}}, "dtype": {"type": "DT_FLOAT"}}}, {"name": "detector/darknet-53/Conv_51/Conv2D_bn_offset", "op": "Const", "attr": {"value": {"tensor": {"dtype": "DT_FLOAT", "tensorShape": {"dim": [{"size": "1024"}]}}}, "dtype": {"type": "DT_FLOAT"}}}, {"name": "detector/darknet-53/Conv_11/Conv2D_weights", "op": "Const", "attr": {"value": {"tensor": {"dtype": "DT_FLOAT", "tensorShape": {"dim": [{"size": "3"}, {"size": "3"}, {"size": "128"}, {"size": "256"}]}}}, "dtype": {"type": "DT_FLOAT"}}}, {"name": "detector/darknet-53/Conv_11/Conv2D_bn_offset", "op": "Const", "attr": {"value": {"tensor": {"dtype": "DT_FLOAT", "tensorShape": {"dim": [{"size": "256"}]}}}, "dtype": {"type": "DT_FLOAT"}}}, {"name": "detector/darknet-53/Conv_12/Conv2D_weights", "op": "Const", "attr": {"value": {"tensor": {"dtype": "DT_FLOAT", "tensorShape": {"dim": [{"size": "1"}, {"size": "1"}, {"size": "256"}, {"size": "128"}]}}}, "dtype": {"type": "DT_FLOAT"}}}, {"name": "detector/darknet-53/Conv_41/Conv2D_weights", "op": "Const", "attr": {"value": {"tensor": {"dtype": "DT_FLOAT", "tensorShape": {"dim": [{"size": "1"}, {"size": "1"}, {"size": "512"}, {"size": "256"}]}}}, "dtype": {"type": "DT_FLOAT"}}}, {"name": "detector/darknet-53/Conv_12/Conv2D_bn_offset", "op": "Const", "attr": {"dtype": {"type": "DT_FLOAT"}, "value": {"tensor": {"dtype": "DT_FLOAT", "tensorShape": {"dim": [{"size": "128"}]}}}}}, {"name": "detector/darknet-53/Conv_13/Conv2D_weights", "op": "Const", "attr": {"value": {"tensor": {"dtype": "DT_FLOAT", "tensorShape": {"dim": [{"size": "3"}, {"size": "3"}, {"size": "128"}, {"size": "256"}]}}}, "dtype": {"type": "DT_FLOAT"}}}, {"name": "detector/darknet-53/Conv_41/Conv2D_bn_offset", "op": "Const", "attr": {"value": {"tensor": {"dtype": "DT_FLOAT", "tensorShape": {"dim": [{"size": "256"}]}}}, "dtype": {"type": "DT_FLOAT"}}}, {"name": "detector/darknet-53/Conv_13/Conv2D_bn_offset", "op": "Const", "attr": {"value": {"tensor": {"dtype": "DT_FLOAT", "tensorShape": {"dim": [{"size": "256"}]}}}, "dtype": {"type": "DT_FLOAT"}}}, {"name": "detector/darknet-53/Conv_14/Conv2D_weights", "op": "Const", "attr": {"value": {"tensor": {"dtype": "DT_FLOAT", "tensorShape": {"dim": [{"size": "1"}, {"size": "1"}, {"size": "256"}, {"size": "128"}]}}}, "dtype": {"type": "DT_FLOAT"}}}, {"name": "detector/darknet-53/Conv_14/Conv2D_bn_offset", "op": "Const", "attr": {"value": {"tensor": {"dtype": "DT_FLOAT", "tensorShape": {"dim": [{"size": "128"}]}}}, "dtype": {"type": "DT_FLOAT"}}}, {"name": "detector/darknet-53/Conv_42/Conv2D_weights", "op": "Const", "attr": {"value": {"tensor": {"dtype": "DT_FLOAT", "tensorShape": {"dim": [{"size": "3"}, {"size": "3"}, {"size": "256"}, {"size": "512"}]}}}, "dtype": {"type": "DT_FLOAT"}}}, {"name": "detector/darknet-53/Conv_15/Conv2D_weights", "op": "Const", "attr": {"value": {"tensor": {"dtype": "DT_FLOAT", "tensorShape": {"dim": [{"size": "3"}, {"size": "3"}, {"size": "128"}, {"size": "256"}]}}}, "dtype": {"type": "DT_FLOAT"}}}, {"name": "detector/darknet-53/Conv_15/Conv2D_bn_offset", "op": "Const", "attr": {"value": {"tensor": {"dtype": "DT_FLOAT", "tensorShape": {"dim": [{"size": "256"}]}}}, "dtype": {"type": "DT_FLOAT"}}}, {"name": "detector/darknet-53/Conv_42/Conv2D_bn_offset", "op": "Const", "attr": {"value": {"tensor": {"dtype": "DT_FLOAT", "tensorShape": {"dim": [{"size": "512"}]}}}, "dtype": {"type": "DT_FLOAT"}}}, {"name": "detector/darknet-53/Conv_16/Conv2D_weights", "op": "Const", "attr": {"dtype": {"type": "DT_FLOAT"}, "value": {"tensor": {"dtype": "DT_FLOAT", "tensorShape": {"dim": [{"size": "1"}, {"size": "1"}, {"size": "256"}, {"size": "128"}]}}}}}, {"name": "detector/yolo-v3/Conv/Conv2D_weights", "op": "Const", "attr": {"value": {"tensor": {"dtype": "DT_FLOAT", "tensorShape": {"dim": [{"size": "1"}, {"size": "1"}, {"size": "1024"}, {"size": "512"}]}}}, "dtype": {"type": "DT_FLOAT"}}}, {"name": "detector/darknet-53/Conv_16/Conv2D_bn_offset", "op": "Const", "attr": {"value": {"tensor": {"dtype": "DT_FLOAT", "tensorShape": {"dim": [{"size": "128"}]}}}, "dtype": {"type": "DT_FLOAT"}}}, {"name": "detector/darknet-53/Conv_17/Conv2D_weights", "op": "Const", "attr": {"value": {"tensor": {"dtype": "DT_FLOAT", "tensorShape": {"dim": [{"size": "3"}, {"size": "3"}, {"size": "128"}, {"size": "256"}]}}}, "dtype": {"type": "DT_FLOAT"}}}, {"name": "detector/darknet-53/Conv_17/Conv2D_bn_offset", "op": "Const", "attr": {"dtype": {"type": "DT_FLOAT"}, "value": {"tensor": {"dtype": "DT_FLOAT", "tensorShape": {"dim": [{"size": "256"}]}}}}}, {"name": "detector/darknet-53/Conv_18/Conv2D_weights", "op": "Const", "attr": {"value": {"tensor": {"dtype": "DT_FLOAT", "tensorShape": {"dim": [{"size": "1"}, {"size": "1"}, {"size": "256"}, {"size": "128"}]}}}, "dtype": {"type": "DT_FLOAT"}}}, {"name": "detector/darknet-53/Conv_43/Conv2D_weights", "op": "Const", "attr": {"value": {"tensor": {"dtype": "DT_FLOAT", "tensorShape": {"dim": [{"size": "3"}, {"size": "3"}, {"size": "512"}, {"size": "1024"}]}}}, "dtype": {"type": "DT_FLOAT"}}}, {"name": "detector/darknet-53/Conv_18/Conv2D_bn_offset", "op": "Const", "attr": {"value": {"tensor": {"dtype": "DT_FLOAT", "tensorShape": {"dim": [{"size": "128"}]}}}, "dtype": {"type": "DT_FLOAT"}}}, {"name": "detector/darknet-53/Conv_19/Conv2D_weights", "op": "Const", "attr": {"value": {"tensor": {"dtype": "DT_FLOAT", "tensorShape": {"dim": [{"size": "3"}, {"size": "3"}, {"size": "128"}, {"size": "256"}]}}}, "dtype": {"type": "DT_FLOAT"}}}, {"name": "detector/darknet-53/Conv_43/Conv2D_bn_offset", "op": "Const", "attr": {"value": {"tensor": {"dtype": "DT_FLOAT", "tensorShape": {"dim": [{"size": "1024"}]}}}, "dtype": {"type": "DT_FLOAT"}}}, {"name": "detector/darknet-53/Conv_19/Conv2D_bn_offset", "op": "Const", "attr": {"dtype": {"type": "DT_FLOAT"}, "value": {"tensor": {"dtype": "DT_FLOAT", "tensorShape": {"dim": [{"size": "256"}]}}}}}, {"name": "detector/yolo-v3/Conv/Conv2D_bn_offset", "op": "Const", "attr": {"value": {"tensor": {"dtype": "DT_FLOAT", "tensorShape": {"dim": [{"size": "512"}]}}}, "dtype": {"type": "DT_FLOAT"}}}, {"name": "detector/darknet-53/Conv_20/Conv2D_weights", "op": "Const", "attr": {"value": {"tensor": {"dtype": "DT_FLOAT", "tensorShape": {"dim": [{"size": "1"}, {"size": "1"}, {"size": "256"}, {"size": "128"}]}}}, "dtype": {"type": "DT_FLOAT"}}}, {"name": "detector/darknet-53/Conv_20/Conv2D_bn_offset", "op": "Const", "attr": {"value": {"tensor": {"dtype": "DT_FLOAT", "tensorShape": {"dim": [{"size": "128"}]}}}, "dtype": {"type": "DT_FLOAT"}}}, {"name": "detector/darknet-53/Conv_44/Conv2D_weights", "op": "Const", "attr": {"value": {"tensor": {"dtype": "DT_FLOAT", "tensorShape": {"dim": [{"size": "1"}, {"size": "1"}, {"size": "1024"}, {"size": "512"}]}}}, "dtype": {"type": "DT_FLOAT"}}}, {"name": "detector/darknet-53/Conv_21/Conv2D_weights", "op": "Const", "attr": {"value": {"tensor": {"dtype": "DT_FLOAT", "tensorShape": {"dim": [{"size": "3"}, {"size": "3"}, {"size": "128"}, {"size": "256"}]}}}, "dtype": {"type": "DT_FLOAT"}}}, {"name": "detector/yolo-v3/Conv_4/Conv2D_weights", "op": "Const", "attr": {"value": {"tensor": {"dtype": "DT_FLOAT", "tensorShape": {"dim": [{"size": "1"}, {"size": "1"}, {"size": "1024"}, {"size": "512"}]}}}, "dtype": {"type": "DT_FLOAT"}}}, {"name": "detector/darknet-53/Conv_21/Conv2D_bn_offset", "op": "Const", "attr": {"value": {"tensor": {"dtype": "DT_FLOAT", "tensorShape": {"dim": [{"size": "256"}]}}}, "dtype": {"type": "DT_FLOAT"}}}, {"name": "detector/darknet-53/Conv_44/Conv2D_bn_offset", "op": "Const", "attr": {"value": {"tensor": {"dtype": "DT_FLOAT", "tensorShape": {"dim": [{"size": "512"}]}}}, "dtype": {"type": "DT_FLOAT"}}}, {"name": "detector/darknet-53/Conv_22/Conv2D_weights", "op": "Const", "attr": {"value": {"tensor": {"dtype": "DT_FLOAT", "tensorShape": {"dim": [{"size": "1"}, {"size": "1"}, {"size": "256"}, {"size": "128"}]}}}, "dtype": {"type": "DT_FLOAT"}}}, {"name": "detector/darknet-53/Conv_22/Conv2D_bn_offset", "op": "Const", "attr": {"value": {"tensor": {"dtype": "DT_FLOAT", "tensorShape": {"dim": [{"size": "128"}]}}}, "dtype": {"type": "DT_FLOAT"}}}, {"name": "detector/darknet-53/Conv_23/Conv2D_weights", "op": "Const", "attr": {"value": {"tensor": {"dtype": "DT_FLOAT", "tensorShape": {"dim": [{"size": "3"}, {"size": "3"}, {"size": "128"}, {"size": "256"}]}}}, "dtype": {"type": "DT_FLOAT"}}}, {"name": "detector/darknet-53/Conv_45/Conv2D_weights", "op": "Const", "attr": {"value": {"tensor": {"dtype": "DT_FLOAT", "tensorShape": {"dim": [{"size": "3"}, {"size": "3"}, {"size": "512"}, {"size": "1024"}]}}}, "dtype": {"type": "DT_FLOAT"}}}, {"name": "detector/darknet-53/Conv_23/Conv2D_bn_offset", "op": "Const", "attr": {"dtype": {"type": "DT_FLOAT"}, "value": {"tensor": {"dtype": "DT_FLOAT", "tensorShape": {"dim": [{"size": "256"}]}}}}}, {"name": "detector/yolo-v3/Conv_1/Conv2D_weights", "op": "Const", "attr": {"value": {"tensor": {"dtype": "DT_FLOAT", "tensorShape": {"dim": [{"size": "3"}, {"size": "3"}, {"size": "512"}, {"size": "1024"}]}}}, "dtype": {"type": "DT_FLOAT"}}}, {"name": "detector/darknet-53/Conv_24/Conv2D_weights", "op": "Const", "attr": {"value": {"tensor": {"dtype": "DT_FLOAT", "tensorShape": {"dim": [{"size": "1"}, {"size": "1"}, {"size": "256"}, {"size": "128"}]}}}, "dtype": {"type": "DT_FLOAT"}}}, {"name": "detector/darknet-53/Conv_45/Conv2D_bn_offset", "op": "Const", "attr": {"value": {"tensor": {"dtype": "DT_FLOAT", "tensorShape": {"dim": [{"size": "1024"}]}}}, "dtype": {"type": "DT_FLOAT"}}}, {"name": "detector/darknet-53/Conv_24/Conv2D_bn_offset", "op": "Const", "attr": {"value": {"tensor": {"dtype": "DT_FLOAT", "tensorShape": {"dim": [{"size": "128"}]}}}, "dtype": {"type": "DT_FLOAT"}}}, {"name": "detector/yolo-v3/Conv_5/Conv2D_bn_offset", "op": "Const", "attr": {"value": {"tensor": {"dtype": "DT_FLOAT", "tensorShape": {"dim": [{"size": "1024"}]}}}, "dtype": {"type": "DT_FLOAT"}}}, {"name": "detector/darknet-53/Conv_25/Conv2D_weights", "op": "Const", "attr": {"value": {"tensor": {"dtype": "DT_FLOAT", "tensorShape": {"dim": [{"size": "3"}, {"size": "3"}, {"size": "128"}, {"size": "256"}]}}}, "dtype": {"type": "DT_FLOAT"}}}, {"name": "detector/darknet-53/Conv_25/Conv2D_bn_offset", "op": "Const", "attr": {"value": {"tensor": {"dtype": "DT_FLOAT", "tensorShape": {"dim": [{"size": "256"}]}}}, "dtype": {"type": "DT_FLOAT"}}}, {"name": "detector/darknet-53/Conv_26/Conv2D_weights", "op": "Const", "attr": {"value": {"tensor": {"dtype": "DT_FLOAT", "tensorShape": {"dim": [{"size": "3"}, {"size": "3"}, {"size": "256"}, {"size": "512"}]}}}, "dtype": {"type": "DT_FLOAT"}}}, {"name": "detector/darknet-53/Conv_46/Conv2D_weights", "op": "Const", "attr": {"dtype": {"type": "DT_FLOAT"}, "value": {"tensor": {"dtype": "DT_FLOAT", "tensorShape": {"dim": [{"size": "1"}, {"size": "1"}, {"size": "1024"}, {"size": "512"}]}}}}}, {"name": "detector/darknet-53/Conv_26/Conv2D_bn_offset", "op": "Const", "attr": {"value": {"tensor": {"dtype": "DT_FLOAT", "tensorShape": {"dim": [{"size": "512"}]}}}, "dtype": {"type": "DT_FLOAT"}}}, {"name": "detector/yolo-v3/Conv_1/Conv2D_bn_offset", "op": "Const", "attr": {"dtype": {"type": "DT_FLOAT"}, "value": {"tensor": {"dtype": "DT_FLOAT", "tensorShape": {"dim": [{"size": "1024"}]}}}}}, {"name": "detector/darknet-53/Conv_27/Conv2D_weights", "op": "Const", "attr": {"value": {"tensor": {"dtype": "DT_FLOAT", "tensorShape": {"dim": [{"size": "1"}, {"size": "1"}, {"size": "512"}, {"size": "256"}]}}}, "dtype": {"type": "DT_FLOAT"}}}, {"name": "detector/darknet-53/Conv_46/Conv2D_bn_offset", "op": "Const", "attr": {"value": {"tensor": {"dtype": "DT_FLOAT", "tensorShape": {"dim": [{"size": "512"}]}}}, "dtype": {"type": "DT_FLOAT"}}}, {"name": "detector/darknet-53/Conv_27/Conv2D_bn_offset", "op": "Const", "attr": {"value": {"tensor": {"dtype": "DT_FLOAT", "tensorShape": {"dim": [{"size": "256"}]}}}, "dtype": {"type": "DT_FLOAT"}}}, {"name": "detector/yolo-v3/Conv_4/Conv2D_bn_offset", "op": "Const", "attr": {"value": {"tensor": {"dtype": "DT_FLOAT", "tensorShape": {"dim": [{"size": "512"}]}}}, "dtype": {"type": "DT_FLOAT"}}}, {"name": "detector/darknet-53/Conv_28/Conv2D_weights", "op": "Const", "attr": {"value": {"tensor": {"dtype": "DT_FLOAT", "tensorShape": {"dim": [{"size": "3"}, {"size": "3"}, {"size": "256"}, {"size": "512"}]}}}, "dtype": {"type": "DT_FLOAT"}}}, {"name": "detector/darknet-53/Conv_28/Conv2D_bn_offset", "op": "Const", "attr": {"value": {"tensor": {"dtype": "DT_FLOAT", "tensorShape": {"dim": [{"size": "512"}]}}}, "dtype": {"type": "DT_FLOAT"}}}, {"name": "detector/darknet-53/Conv_47/Conv2D_weights", "op": "Const", "attr": {"value": {"tensor": {"dtype": "DT_FLOAT", "tensorShape": {"dim": [{"size": "3"}, {"size": "3"}, {"size": "512"}, {"size": "1024"}]}}}, "dtype": {"type": "DT_FLOAT"}}}, {"name": "detector/darknet-53/Conv_29/Conv2D_weights", "op": "Const", "attr": {"dtype": {"type": "DT_FLOAT"}, "value": {"tensor": {"dtype": "DT_FLOAT", "tensorShape": {"dim": [{"size": "1"}, {"size": "1"}, {"size": "512"}, {"size": "256"}]}}}}}, {"name": "detector/darknet-53/Conv_29/Conv2D_bn_offset", "op": "Const", "attr": {"value": {"tensor": {"dtype": "DT_FLOAT", "tensorShape": {"dim": [{"size": "256"}]}}}, "dtype": {"type": "DT_FLOAT"}}}, {"name": "detector/darknet-53/Conv_47/Conv2D_bn_offset", "op": "Const", "attr": {"value": {"tensor": {"dtype": "DT_FLOAT", "tensorShape": {"dim": [{"size": "1024"}]}}}, "dtype": {"type": "DT_FLOAT"}}}, {"name": "detector/darknet-53/Conv_30/Conv2D_weights", "op": "Const", "attr": {"dtype": {"type": "DT_FLOAT"}, "value": {"tensor": {"dtype": "DT_FLOAT", "tensorShape": {"dim": [{"size": "3"}, {"size": "3"}, {"size": "256"}, {"size": "512"}]}}}}}, {"name": "detector/yolo-v3/Conv_2/Conv2D_weights", "op": "Const", "attr": {"dtype": {"type": "DT_FLOAT"}, "value": {"tensor": {"dtype": "DT_FLOAT", "tensorShape": {"dim": [{"size": "1"}, {"size": "1"}, {"size": "1024"}, {"size": "512"}]}}}}}, {"name": "detector/darknet-53/Conv_30/Conv2D_bn_offset", "op": "Const", "attr": {"value": {"tensor": {"dtype": "DT_FLOAT", "tensorShape": {"dim": [{"size": "512"}]}}}, "dtype": {"type": "DT_FLOAT"}}}, {"name": "detector/darknet-53/Conv_31/Conv2D_weights", "op": "Const", "attr": {"value": {"tensor": {"dtype": "DT_FLOAT", "tensorShape": {"dim": [{"size": "1"}, {"size": "1"}, {"size": "512"}, {"size": "256"}]}}}, "dtype": {"type": "DT_FLOAT"}}}, {"name": "detector/darknet-53/Conv_31/Conv2D_bn_offset", "op": "Const", "attr": {"value": {"tensor": {"dtype": "DT_FLOAT", "tensorShape": {"dim": [{"size": "256"}]}}}, "dtype": {"type": "DT_FLOAT"}}}, {"name": "detector/darknet-53/Conv_48/Conv2D_weights", "op": "Const", "attr": {"value": {"tensor": {"dtype": "DT_FLOAT", "tensorShape": {"dim": [{"size": "1"}, {"size": "1"}, {"size": "1024"}, {"size": "512"}]}}}, "dtype": {"type": "DT_FLOAT"}}}, {"name": "detector/darknet-53/Conv_32/Conv2D_weights", "op": "Const", "attr": {"value": {"tensor": {"dtype": "DT_FLOAT", "tensorShape": {"dim": [{"size": "3"}, {"size": "3"}, {"size": "256"}, {"size": "512"}]}}}, "dtype": {"type": "DT_FLOAT"}}}, {"name": "detector/darknet-53/Conv_32/Conv2D_bn_offset", "op": "Const", "attr": {"dtype": {"type": "DT_FLOAT"}, "value": {"tensor": {"dtype": "DT_FLOAT", "tensorShape": {"dim": [{"size": "512"}]}}}}}, {"name": "detector/darknet-53/Conv_48/Conv2D_bn_offset", "op": "Const", "attr": {"value": {"tensor": {"dtype": "DT_FLOAT", "tensorShape": {"dim": [{"size": "512"}]}}}, "dtype": {"type": "DT_FLOAT"}}}, {"name": "detector/darknet-53/Conv_33/Conv2D_weights", "op": "Const", "attr": {"value": {"tensor": {"dtype": "DT_FLOAT", "tensorShape": {"dim": [{"size": "1"}, {"size": "1"}, {"size": "512"}, {"size": "256"}]}}}, "dtype": {"type": "DT_FLOAT"}}}, {"name": "detector/yolo-v3/Conv_2/Conv2D_bn_offset", "op": "Const", "attr": {"value": {"tensor": {"dtype": "DT_FLOAT", "tensorShape": {"dim": [{"size": "512"}]}}}, "dtype": {"type": "DT_FLOAT"}}}, {"name": "detector/darknet-53/Conv_33/Conv2D_bn_offset", "op": "Const", "attr": {"dtype": {"type": "DT_FLOAT"}, "value": {"tensor": {"dtype": "DT_FLOAT", "tensorShape": {"dim": [{"size": "256"}]}}}}}, {"name": "detector/darknet-53/Conv_34/Conv2D_weights", "op": "Const", "attr": {"value": {"tensor": {"dtype": "DT_FLOAT", "tensorShape": {"dim": [{"size": "3"}, {"size": "3"}, {"size": "256"}, {"size": "512"}]}}}, "dtype": {"type": "DT_FLOAT"}}}, {"name": "detector/darknet-53/Conv_49/Conv2D_weights", "op": "Const", "attr": {"dtype": {"type": "DT_FLOAT"}, "value": {"tensor": {"dtype": "DT_FLOAT", "tensorShape": {"dim": [{"size": "3"}, {"size": "3"}, {"size": "512"}, {"size": "1024"}]}}}}}, {"name": "detector/darknet-53/Conv_34/Conv2D_bn_offset", "op": "Const", "attr": {"value": {"tensor": {"dtype": "DT_FLOAT", "tensorShape": {"dim": [{"size": "512"}]}}}, "dtype": {"type": "DT_FLOAT"}}}, {"name": "detector/darknet-53/Conv_35/Conv2D_weights", "op": "Const", "attr": {"value": {"tensor": {"dtype": "DT_FLOAT", "tensorShape": {"dim": [{"size": "1"}, {"size": "1"}, {"size": "512"}, {"size": "256"}]}}}, "dtype": {"type": "DT_FLOAT"}}}, {"name": "detector/darknet-53/Conv_49/Conv2D_bn_offset", "op": "Const", "attr": {"value": {"tensor": {"dtype": "DT_FLOAT", "tensorShape": {"dim": [{"size": "1024"}]}}}, "dtype": {"type": "DT_FLOAT"}}}, {"name": "detector/darknet-53/Conv_35/Conv2D_bn_offset", "op": "Const", "attr": {"value": {"tensor": {"dtype": "DT_FLOAT", "tensorShape": {"dim": [{"size": "256"}]}}}, "dtype": {"type": "DT_FLOAT"}}}, {"name": "detector/darknet-53/Conv_36/Conv2D_weights", "op": "Const", "attr": {"value": {"tensor": {"dtype": "DT_FLOAT", "tensorShape": {"dim": [{"size": "3"}, {"size": "3"}, {"size": "256"}, {"size": "512"}]}}}, "dtype": {"type": "DT_FLOAT"}}}, {"name": "detector/darknet-53/Conv_36/Conv2D_bn_offset", "op": "Const", "attr": {"value": {"tensor": {"dtype": "DT_FLOAT", "tensorShape": {"dim": [{"size": "512"}]}}}, "dtype": {"type": "DT_FLOAT"}}}, {"name": "detector/darknet-53/Conv/LeakyRelu", "op": "_FusedConv2D", "input": ["Placeholder", "detector/darknet-53/Conv/Conv2D_weights", "detector/darknet-53/Conv/Conv2D_bn_offset"], "device": "/device:CPU:0", "attr": {"T": {"type": "DT_FLOAT"}, "data_format": {"s": "TkhXQw=="}, "strides": {"list": {"i": ["1", "1", "1", "1"]}}, "use_cudnn_on_gpu": {"b": true}, "explicit_paddings": {"list": {}}, "num_args": {"i": "1"}, "epsilon": {"f": 0.0}, "padding": {"s": "U0FNRQ=="}, "fused_ops": {"list": {"s": ["Qmlhc0FkZA==", "TGVha3lSZWx1"]}}, "leakyrelu_alpha": {"f": 0.1}, "dilations": {"list": {"i": ["1", "1", "1", "1"]}}}}, {"name": "detector/darknet-53/Pad", "op": "Pad", "input": ["detector/darknet-53/Conv/LeakyRelu", "detector/darknet-53/Pad/paddings"], "attr": {"Tpaddings": {"type": "DT_INT32"}, "T": {"type": "DT_FLOAT"}}}, {"name": "detector/darknet-53/Conv_1/LeakyRelu", "op": "_FusedConv2D", "input": ["detector/darknet-53/Pad", "detector/darknet-53/Conv_1/Conv2D_weights", "detector/darknet-53/Conv_1/Conv2D_bn_offset"], "device": "/device:CPU:0", "attr": {"T": {"type": "DT_FLOAT"}, "data_format": {"s": "TkhXQw=="}, "strides": {"list": {"i": ["1", "2", "2", "1"]}}, "explicit_paddings": {"list": {}}, "use_cudnn_on_gpu": {"b": true}, "num_args": {"i": "1"}, "epsilon": {"f": 0.0}, "padding": {"s": "VkFMSUQ="}, "fused_ops": {"list": {"s": ["Qmlhc0FkZA==", "TGVha3lSZWx1"]}}, "leakyrelu_alpha": {"f": 0.1}, "dilations": {"list": {"i": ["1", "1", "1", "1"]}}}}, {"name": "detector/darknet-53/Conv_2/LeakyRelu", "op": "_FusedConv2D", "input": ["detector/darknet-53/Conv_1/LeakyRelu", "detector/darknet-53/Conv_2/Conv2D_weights", "detector/darknet-53/Conv_2/Conv2D_bn_offset"], "device": "/device:CPU:0", "attr": {"strides": {"list": {"i": ["1", "1", "1", "1"]}}, "data_format": {"s": "TkhXQw=="}, "use_cudnn_on_gpu": {"b": true}, "explicit_paddings": {"list": {}}, "num_args": {"i": "1"}, "epsilon": {"f": 0.0}, "padding": {"s": "U0FNRQ=="}, "fused_ops": {"list": {"s": ["Qmlhc0FkZA==", "TGVha3lSZWx1"]}}, "leakyrelu_alpha": {"f": 0.1}, "dilations": {"list": {"i": ["1", "1", "1", "1"]}}, "T": {"type": "DT_FLOAT"}}}, {"name": "detector/darknet-53/Conv_3/LeakyRelu", "op": "_FusedConv2D", "input": ["detector/darknet-53/Conv_2/LeakyRelu", "detector/darknet-53/Conv_3/Conv2D_weights", "detector/darknet-53/Conv_3/Conv2D_bn_offset"], "device": "/device:CPU:0", "attr": {"leakyrelu_alpha": {"f": 0.1}, "dilations": {"list": {"i": ["1", "1", "1", "1"]}}, "T": {"type": "DT_FLOAT"}, "strides": {"list": {"i": ["1", "1", "1", "1"]}}, "data_format": {"s": "TkhXQw=="}, "explicit_paddings": {"list": {}}, "use_cudnn_on_gpu": {"b": true}, "num_args": {"i": "1"}, "epsilon": {"f": 0.0}, "padding": {"s": "U0FNRQ=="}, "fused_ops": {"list": {"s": ["Qmlhc0FkZA==", "TGVha3lSZWx1"]}}}}, {"name": "detector/darknet-53/add", "op": "AddV2", "input": ["detector/darknet-53/Conv_3/LeakyRelu", "detector/darknet-53/Conv_1/LeakyRelu"], "attr": {"T": {"type": "DT_FLOAT"}}}, {"name": "detector/darknet-53/Pad_1", "op": "Pad", "input": ["detector/darknet-53/add", "detector/darknet-53/Pad_1/paddings"], "attr": {"T": {"type": "DT_FLOAT"}, "Tpaddings": {"type": "DT_INT32"}}}, {"name": "detector/darknet-53/Conv_4/LeakyRelu", "op": "_FusedConv2D", "input": ["detector/darknet-53/Pad_1", "detector/darknet-53/Conv_4/Conv2D_weights", "detector/darknet-53/Conv_4/Conv2D_bn_offset"], "device": "/device:CPU:0", "attr": {"leakyrelu_alpha": {"f": 0.1}, "dilations": {"list": {"i": ["1", "1", "1", "1"]}}, "T": {"type": "DT_FLOAT"}, "data_format": {"s": "TkhXQw=="}, "strides": {"list": {"i": ["1", "2", "2", "1"]}}, "explicit_paddings": {"list": {}}, "use_cudnn_on_gpu": {"b": true}, "num_args": {"i": "1"}, "epsilon": {"f": 0.0}, "padding": {"s": "VkFMSUQ="}, "fused_ops": {"list": {"s": ["Qmlhc0FkZA==", "TGVha3lSZWx1"]}}}}, {"name": "detector/darknet-53/Conv_5/LeakyRelu", "op": "_FusedConv2D", "input": ["detector/darknet-53/Conv_4/LeakyRelu", "detector/darknet-53/Conv_5/Conv2D_weights", "detector/darknet-53/Conv_5/Conv2D_bn_offset"], "device": "/device:CPU:0", "attr": {"num_args": {"i": "1"}, "epsilon": {"f": 0.0}, "padding": {"s": "U0FNRQ=="}, "fused_ops": {"list": {"s": ["Qmlhc0FkZA==", "TGVha3lSZWx1"]}}, "leakyrelu_alpha": {"f": 0.1}, "dilations": {"list": {"i": ["1", "1", "1", "1"]}}, "T": {"type": "DT_FLOAT"}, "strides": {"list": {"i": ["1", "1", "1", "1"]}}, "data_format": {"s": "TkhXQw=="}, "explicit_paddings": {"list": {}}, "use_cudnn_on_gpu": {"b": true}}}, {"name": "detector/darknet-53/Conv_6/LeakyRelu", "op": "_FusedConv2D", "input": ["detector/darknet-53/Conv_5/LeakyRelu", "detector/darknet-53/Conv_6/Conv2D_weights", "detector/darknet-53/Conv_6/Conv2D_bn_offset"], "device": "/device:CPU:0", "attr": {"leakyrelu_alpha": {"f": 0.1}, "dilations": {"list": {"i": ["1", "1", "1", "1"]}}, "T": {"type": "DT_FLOAT"}, "data_format": {"s": "TkhXQw=="}, "strides": {"list": {"i": ["1", "1", "1", "1"]}}, "explicit_paddings": {"list": {}}, "use_cudnn_on_gpu": {"b": true}, "num_args": {"i": "1"}, "epsilon": {"f": 0.0}, "padding": {"s": "U0FNRQ=="}, "fused_ops": {"list": {"s": ["Qmlhc0FkZA==", "TGVha3lSZWx1"]}}}}, {"name": "detector/darknet-53/add_1", "op": "AddV2", "input": ["detector/darknet-53/Conv_6/LeakyRelu", "detector/darknet-53/Conv_4/LeakyRelu"], "attr": {"T": {"type": "DT_FLOAT"}}}, {"name": "detector/darknet-53/Conv_7/LeakyRelu", "op": "_FusedConv2D", "input": ["detector/darknet-53/add_1", "detector/darknet-53/Conv_7/Conv2D_weights", "detector/darknet-53/Conv_7/Conv2D_bn_offset"], "device": "/device:CPU:0", "attr": {"dilations": {"list": {"i": ["1", "1", "1", "1"]}}, "T": {"type": "DT_FLOAT"}, "strides": {"list": {"i": ["1", "1", "1", "1"]}}, "data_format": {"s": "TkhXQw=="}, "explicit_paddings": {"list": {}}, "use_cudnn_on_gpu": {"b": true}, "num_args": {"i": "1"}, "epsilon": {"f": 0.0}, "padding": {"s": "U0FNRQ=="}, "fused_ops": {"list": {"s": ["Qmlhc0FkZA==", "TGVha3lSZWx1"]}}, "leakyrelu_alpha": {"f": 0.1}}}, {"name": "detector/darknet-53/Conv_8/LeakyRelu", "op": "_FusedConv2D", "input": ["detector/darknet-53/Conv_7/LeakyRelu", "detector/darknet-53/Conv_8/Conv2D_weights", "detector/darknet-53/Conv_8/Conv2D_bn_offset"], "device": "/device:CPU:0", "attr": {"leakyrelu_alpha": {"f": 0.1}, "dilations": {"list": {"i": ["1", "1", "1", "1"]}}, "T": {"type": "DT_FLOAT"}, "strides": {"list": {"i": ["1", "1", "1", "1"]}}, "data_format": {"s": "TkhXQw=="}, "explicit_paddings": {"list": {}}, "use_cudnn_on_gpu": {"b": true}, "num_args": {"i": "1"}, "epsilon": {"f": 0.0}, "padding": {"s": "U0FNRQ=="}, "fused_ops": {"list": {"s": ["Qmlhc0FkZA==", "TGVha3lSZWx1"]}}}}, {"name": "detector/darknet-53/add_2", "op": "AddV2", "input": ["detector/darknet-53/Conv_8/LeakyRelu", "detector/darknet-53/add_1"], "attr": {"T": {"type": "DT_FLOAT"}}}, {"name": "detector/darknet-53/Pad_2", "op": "Pad", "input": ["detector/darknet-53/add_2", "detector/darknet-53/Pad_2/paddings"], "attr": {"T": {"type": "DT_FLOAT"}, "Tpaddings": {"type": "DT_INT32"}}}, {"name": "detector/darknet-53/Conv_9/LeakyRelu", "op": "_FusedConv2D", "input": ["detector/darknet-53/Pad_2", "detector/darknet-53/Conv_9/Conv2D_weights", "detector/darknet-53/Conv_9/Conv2D_bn_offset"], "device": "/device:CPU:0", "attr": {"leakyrelu_alpha": {"f": 0.1}, "dilations": {"list": {"i": ["1", "1", "1", "1"]}}, "T": {"type": "DT_FLOAT"}, "strides": {"list": {"i": ["1", "2", "2", "1"]}}, "data_format": {"s": "TkhXQw=="}, "explicit_paddings": {"list": {}}, "use_cudnn_on_gpu": {"b": true}, "num_args": {"i": "1"}, "epsilon": {"f": 0.0}, "padding": {"s": "VkFMSUQ="}, "fused_ops": {"list": {"s": ["Qmlhc0FkZA==", "TGVha3lSZWx1"]}}}}, {"name": "detector/darknet-53/Conv_10/LeakyRelu", "op": "_FusedConv2D", "input": ["detector/darknet-53/Conv_9/LeakyRelu", "detector/darknet-53/Conv_10/Conv2D_weights", "detector/darknet-53/Conv_10/Conv2D_bn_offset"], "device": "/device:CPU:0", "attr": {"dilations": {"list": {"i": ["1", "1", "1", "1"]}}, "T": {"type": "DT_FLOAT"}, "strides": {"list": {"i": ["1", "1", "1", "1"]}}, "data_format": {"s": "TkhXQw=="}, "explicit_paddings": {"list": {}}, "use_cudnn_on_gpu": {"b": true}, "num_args": {"i": "1"}, "epsilon": {"f": 0.0}, "padding": {"s": "U0FNRQ=="}, "fused_ops": {"list": {"s": ["Qmlhc0FkZA==", "TGVha3lSZWx1"]}}, "leakyrelu_alpha": {"f": 0.1}}}, {"name": "detector/darknet-53/Conv_11/LeakyRelu", "op": "_FusedConv2D", "input": ["detector/darknet-53/Conv_10/LeakyRelu", "detector/darknet-53/Conv_11/Conv2D_weights", "detector/darknet-53/Conv_11/Conv2D_bn_offset"], "device": "/device:CPU:0", "attr": {"T": {"type": "DT_FLOAT"}, "strides": {"list": {"i": ["1", "1", "1", "1"]}}, "data_format": {"s": "TkhXQw=="}, "use_cudnn_on_gpu": {"b": true}, "explicit_paddings": {"list": {}}, "num_args": {"i": "1"}, "epsilon": {"f": 0.0}, "padding": {"s": "U0FNRQ=="}, "fused_ops": {"list": {"s": ["Qmlhc0FkZA==", "TGVha3lSZWx1"]}}, "leakyrelu_alpha": {"f": 0.1}, "dilations": {"list": {"i": ["1", "1", "1", "1"]}}}}, {"name": "detector/darknet-53/add_3", "op": "AddV2", "input": ["detector/darknet-53/Conv_11/LeakyRelu", "detector/darknet-53/Conv_9/LeakyRelu"], "attr": {"T": {"type": "DT_FLOAT"}}}, {"name": "detector/darknet-53/Conv_12/LeakyRelu", "op": "_FusedConv2D", "input": ["detector/darknet-53/add_3", "detector/darknet-53/Conv_12/Conv2D_weights", "detector/darknet-53/Conv_12/Conv2D_bn_offset"], "device": "/device:CPU:0", "attr": {"num_args": {"i": "1"}, "epsilon": {"f": 0.0}, "padding": {"s": "U0FNRQ=="}, "fused_ops": {"list": {"s": ["Qmlhc0FkZA==", "TGVha3lSZWx1"]}}, "leakyrelu_alpha": {"f": 0.1}, "dilations": {"list": {"i": ["1", "1", "1", "1"]}}, "T": {"type": "DT_FLOAT"}, "data_format": {"s": "TkhXQw=="}, "strides": {"list": {"i": ["1", "1", "1", "1"]}}, "explicit_paddings": {"list": {}}, "use_cudnn_on_gpu": {"b": true}}}, {"name": "detector/darknet-53/Conv_13/LeakyRelu", "op": "_FusedConv2D", "input": ["detector/darknet-53/Conv_12/LeakyRelu", "detector/darknet-53/Conv_13/Conv2D_weights", "detector/darknet-53/Conv_13/Conv2D_bn_offset"], "device": "/device:CPU:0", "attr": {"dilations": {"list": {"i": ["1", "1", "1", "1"]}}, "T": {"type": "DT_FLOAT"}, "strides": {"list": {"i": ["1", "1", "1", "1"]}}, "data_format": {"s": "TkhXQw=="}, "use_cudnn_on_gpu": {"b": true}, "explicit_paddings": {"list": {}}, "num_args": {"i": "1"}, "epsilon": {"f": 0.0}, "padding": {"s": "U0FNRQ=="}, "fused_ops": {"list": {"s": ["Qmlhc0FkZA==", "TGVha3lSZWx1"]}}, "leakyrelu_alpha": {"f": 0.1}}}, {"name": "detector/darknet-53/add_4", "op": "AddV2", "input": ["detector/darknet-53/Conv_13/LeakyRelu", "detector/darknet-53/add_3"], "attr": {"T": {"type": "DT_FLOAT"}}}, {"name": "detector/darknet-53/Conv_14/LeakyRelu", "op": "_FusedConv2D", "input": ["detector/darknet-53/add_4", "detector/darknet-53/Conv_14/Conv2D_weights", "detector/darknet-53/Conv_14/Conv2D_bn_offset"], "device": "/device:CPU:0", "attr": {"leakyrelu_alpha": {"f": 0.1}, "dilations": {"list": {"i": ["1", "1", "1", "1"]}}, "T": {"type": "DT_FLOAT"}, "data_format": {"s": "TkhXQw=="}, "strides": {"list": {"i": ["1", "1", "1", "1"]}}, "explicit_paddings": {"list": {}}, "use_cudnn_on_gpu": {"b": true}, "num_args": {"i": "1"}, "epsilon": {"f": 0.0}, "padding": {"s": "U0FNRQ=="}, "fused_ops": {"list": {"s": ["Qmlhc0FkZA==", "TGVha3lSZWx1"]}}}}, {"name": "detector/darknet-53/Conv_15/LeakyRelu", "op": "_FusedConv2D", "input": ["detector/darknet-53/Conv_14/LeakyRelu", "detector/darknet-53/Conv_15/Conv2D_weights", "detector/darknet-53/Conv_15/Conv2D_bn_offset"], "device": "/device:CPU:0", "attr": {"data_format": {"s": "TkhXQw=="}, "strides": {"list": {"i": ["1", "1", "1", "1"]}}, "explicit_paddings": {"list": {}}, "use_cudnn_on_gpu": {"b": true}, "num_args": {"i": "1"}, "epsilon": {"f": 0.0}, "padding": {"s": "U0FNRQ=="}, "fused_ops": {"list": {"s": ["Qmlhc0FkZA==", "TGVha3lSZWx1"]}}, "leakyrelu_alpha": {"f": 0.1}, "dilations": {"list": {"i": ["1", "1", "1", "1"]}}, "T": {"type": "DT_FLOAT"}}}, {"name": "detector/darknet-53/add_5", "op": "AddV2", "input": ["detector/darknet-53/Conv_15/LeakyRelu", "detector/darknet-53/add_4"], "attr": {"T": {"type": "DT_FLOAT"}}}, {"name": "detector/darknet-53/Conv_16/LeakyRelu", "op": "_FusedConv2D", "input": ["detector/darknet-53/add_5", "detector/darknet-53/Conv_16/Conv2D_weights", "detector/darknet-53/Conv_16/Conv2D_bn_offset"], "device": "/device:CPU:0", "attr": {"leakyrelu_alpha": {"f": 0.1}, "dilations": {"list": {"i": ["1", "1", "1", "1"]}}, "T": {"type": "DT_FLOAT"}, "data_format": {"s": "TkhXQw=="}, "strides": {"list": {"i": ["1", "1", "1", "1"]}}, "use_cudnn_on_gpu": {"b": true}, "explicit_paddings": {"list": {}}, "num_args": {"i": "1"}, "epsilon": {"f": 0.0}, "padding": {"s": "U0FNRQ=="}, "fused_ops": {"list": {"s": ["Qmlhc0FkZA==", "TGVha3lSZWx1"]}}}}, {"name": "detector/darknet-53/Conv_17/LeakyRelu", "op": "_FusedConv2D", "input": ["detector/darknet-53/Conv_16/LeakyRelu", "detector/darknet-53/Conv_17/Conv2D_weights", "detector/darknet-53/Conv_17/Conv2D_bn_offset"], "device": "/device:CPU:0", "attr": {"dilations": {"list": {"i": ["1", "1", "1", "1"]}}, "T": {"type": "DT_FLOAT"}, "strides": {"list": {"i": ["1", "1", "1", "1"]}}, "data_format": {"s": "TkhXQw=="}, "explicit_paddings": {"list": {}}, "use_cudnn_on_gpu": {"b": true}, "num_args": {"i": "1"}, "epsilon": {"f": 0.0}, "padding": {"s": "U0FNRQ=="}, "fused_ops": {"list": {"s": ["Qmlhc0FkZA==", "TGVha3lSZWx1"]}}, "leakyrelu_alpha": {"f": 0.1}}}, {"name": "detector/darknet-53/add_6", "op": "AddV2", "input": ["detector/darknet-53/Conv_17/LeakyRelu", "detector/darknet-53/add_5"], "attr": {"T": {"type": "DT_FLOAT"}}}, {"name": "detector/darknet-53/Conv_18/LeakyRelu", "op": "_FusedConv2D", "input": ["detector/darknet-53/add_6", "detector/darknet-53/Conv_18/Conv2D_weights", "detector/darknet-53/Conv_18/Conv2D_bn_offset"], "device": "/device:CPU:0", "attr": {"leakyrelu_alpha": {"f": 0.1}, "dilations": {"list": {"i": ["1", "1", "1", "1"]}}, "T": {"type": "DT_FLOAT"}, "strides": {"list": {"i": ["1", "1", "1", "1"]}}, "data_format": {"s": "TkhXQw=="}, "explicit_paddings": {"list": {}}, "use_cudnn_on_gpu": {"b": true}, "num_args": {"i": "1"}, "epsilon": {"f": 0.0}, "padding": {"s": "U0FNRQ=="}, "fused_ops": {"list": {"s": ["Qmlhc0FkZA==", "TGVha3lSZWx1"]}}}}, {"name": "detector/darknet-53/Conv_19/LeakyRelu", "op": "_FusedConv2D", "input": ["detector/darknet-53/Conv_18/LeakyRelu", "detector/darknet-53/Conv_19/Conv2D_weights", "detector/darknet-53/Conv_19/Conv2D_bn_offset"], "device": "/device:CPU:0", "attr": {"epsilon": {"f": 0.0}, "padding": {"s": "U0FNRQ=="}, "fused_ops": {"list": {"s": ["Qmlhc0FkZA==", "TGVha3lSZWx1"]}}, "leakyrelu_alpha": {"f": 0.1}, "dilations": {"list": {"i": ["1", "1", "1", "1"]}}, "T": {"type": "DT_FLOAT"}, "strides": {"list": {"i": ["1", "1", "1", "1"]}}, "data_format": {"s": "TkhXQw=="}, "explicit_paddings": {"list": {}}, "use_cudnn_on_gpu": {"b": true}, "num_args": {"i": "1"}}}, {"name": "detector/darknet-53/add_7", "op": "AddV2", "input": ["detector/darknet-53/Conv_19/LeakyRelu", "detector/darknet-53/add_6"], "attr": {"T": {"type": "DT_FLOAT"}}}, {"name": "detector/darknet-53/Conv_20/LeakyRelu", "op": "_FusedConv2D", "input": ["detector/darknet-53/add_7", "detector/darknet-53/Conv_20/Conv2D_weights", "detector/darknet-53/Conv_20/Conv2D_bn_offset"], "device": "/device:CPU:0", "attr": {"dilations": {"list": {"i": ["1", "1", "1", "1"]}}, "T": {"type": "DT_FLOAT"}, "data_format": {"s": "TkhXQw=="}, "strides": {"list": {"i": ["1", "1", "1", "1"]}}, "use_cudnn_on_gpu": {"b": true}, "explicit_paddings": {"list": {}}, "num_args": {"i": "1"}, "epsilon": {"f": 0.0}, "padding": {"s": "U0FNRQ=="}, "fused_ops": {"list": {"s": ["Qmlhc0FkZA==", "TGVha3lSZWx1"]}}, "leakyrelu_alpha": {"f": 0.1}}}, {"name": "detector/darknet-53/Conv_21/LeakyRelu", "op": "_FusedConv2D", "input": ["detector/darknet-53/Conv_20/LeakyRelu", "detector/darknet-53/Conv_21/Conv2D_weights", "detector/darknet-53/Conv_21/Conv2D_bn_offset"], "device": "/device:CPU:0", "attr": {"leakyrelu_alpha": {"f": 0.1}, "dilations": {"list": {"i": ["1", "1", "1", "1"]}}, "T": {"type": "DT_FLOAT"}, "strides": {"list": {"i": ["1", "1", "1", "1"]}}, "data_format": {"s": "TkhXQw=="}, "use_cudnn_on_gpu": {"b": true}, "explicit_paddings": {"list": {}}, "num_args": {"i": "1"}, "epsilon": {"f": 0.0}, "padding": {"s": "U0FNRQ=="}, "fused_ops": {"list": {"s": ["Qmlhc0FkZA==", "TGVha3lSZWx1"]}}}}, {"name": "detector/darknet-53/add_8", "op": "AddV2", "input": ["detector/darknet-53/Conv_21/LeakyRelu", "detector/darknet-53/add_7"], "attr": {"T": {"type": "DT_FLOAT"}}}, {"name": "detector/darknet-53/Conv_22/LeakyRelu", "op": "_FusedConv2D", "input": ["detector/darknet-53/add_8", "detector/darknet-53/Conv_22/Conv2D_weights", "detector/darknet-53/Conv_22/Conv2D_bn_offset"], "device": "/device:CPU:0", "attr": {"dilations": {"list": {"i": ["1", "1", "1", "1"]}}, "T": {"type": "DT_FLOAT"}, "strides": {"list": {"i": ["1", "1", "1", "1"]}}, "data_format": {"s": "TkhXQw=="}, "explicit_paddings": {"list": {}}, "use_cudnn_on_gpu": {"b": true}, "num_args": {"i": "1"}, "epsilon": {"f": 0.0}, "padding": {"s": "U0FNRQ=="}, "fused_ops": {"list": {"s": ["Qmlhc0FkZA==", "TGVha3lSZWx1"]}}, "leakyrelu_alpha": {"f": 0.1}}}, {"name": "detector/darknet-53/Conv_23/LeakyRelu", "op": "_FusedConv2D", "input": ["detector/darknet-53/Conv_22/LeakyRelu", "detector/darknet-53/Conv_23/Conv2D_weights", "detector/darknet-53/Conv_23/Conv2D_bn_offset"], "device": "/device:CPU:0", "attr": {"dilations": {"list": {"i": ["1", "1", "1", "1"]}}, "T": {"type": "DT_FLOAT"}, "strides": {"list": {"i": ["1", "1", "1", "1"]}}, "data_format": {"s": "TkhXQw=="}, "explicit_paddings": {"list": {}}, "use_cudnn_on_gpu": {"b": true}, "num_args": {"i": "1"}, "epsilon": {"f": 0.0}, "padding": {"s": "U0FNRQ=="}, "fused_ops": {"list": {"s": ["Qmlhc0FkZA==", "TGVha3lSZWx1"]}}, "leakyrelu_alpha": {"f": 0.1}}}, {"name": "detector/darknet-53/add_9", "op": "AddV2", "input": ["detector/darknet-53/Conv_23/LeakyRelu", "detector/darknet-53/add_8"], "attr": {"T": {"type": "DT_FLOAT"}}}, {"name": "detector/darknet-53/Conv_24/LeakyRelu", "op": "_FusedConv2D", "input": ["detector/darknet-53/add_9", "detector/darknet-53/Conv_24/Conv2D_weights", "detector/darknet-53/Conv_24/Conv2D_bn_offset"], "device": "/device:CPU:0", "attr": {"num_args": {"i": "1"}, "epsilon": {"f": 0.0}, "padding": {"s": "U0FNRQ=="}, "fused_ops": {"list": {"s": ["Qmlhc0FkZA==", "TGVha3lSZWx1"]}}, "leakyrelu_alpha": {"f": 0.1}, "dilations": {"list": {"i": ["1", "1", "1", "1"]}}, "T": {"type": "DT_FLOAT"}, "data_format": {"s": "TkhXQw=="}, "strides": {"list": {"i": ["1", "1", "1", "1"]}}, "use_cudnn_on_gpu": {"b": true}, "explicit_paddings": {"list": {}}}}, {"name": "detector/darknet-53/Conv_25/LeakyRelu", "op": "_FusedConv2D", "input": ["detector/darknet-53/Conv_24/LeakyRelu", "detector/darknet-53/Conv_25/Conv2D_weights", "detector/darknet-53/Conv_25/Conv2D_bn_offset"], "device": "/device:CPU:0", "attr": {"data_format": {"s": "TkhXQw=="}, "strides": {"list": {"i": ["1", "1", "1", "1"]}}, "explicit_paddings": {"list": {}}, "use_cudnn_on_gpu": {"b": true}, "num_args": {"i": "1"}, "epsilon": {"f": 0.0}, "padding": {"s": "U0FNRQ=="}, "fused_ops": {"list": {"s": ["Qmlhc0FkZA==", "TGVha3lSZWx1"]}}, "leakyrelu_alpha": {"f": 0.1}, "dilations": {"list": {"i": ["1", "1", "1", "1"]}}, "T": {"type": "DT_FLOAT"}}}, {"name": "detector/darknet-53/add_10", "op": "AddV2", "input": ["detector/darknet-53/Conv_25/LeakyRelu", "detector/darknet-53/add_9"], "attr": {"T": {"type": "DT_FLOAT"}}}, {"name": "detector/darknet-53/Pad_3", "op": "Pad", "input": ["detector/darknet-53/add_10", "detector/darknet-53/Pad_3/paddings"], "attr": {"Tpaddings": {"type": "DT_INT32"}, "T": {"type": "DT_FLOAT"}}}, {"name": "detector/darknet-53/Conv_26/LeakyRelu", "op": "_FusedConv2D", "input": ["detector/darknet-53/Pad_3", "detector/darknet-53/Conv_26/Conv2D_weights", "detector/darknet-53/Conv_26/Conv2D_bn_offset"], "device": "/device:CPU:0", "attr": {"dilations": {"list": {"i": ["1", "1", "1", "1"]}}, "T": {"type": "DT_FLOAT"}, "data_format": {"s": "TkhXQw=="}, "strides": {"list": {"i": ["1", "2", "2", "1"]}}, "use_cudnn_on_gpu": {"b": true}, "explicit_paddings": {"list": {}}, "num_args": {"i": "1"}, "epsilon": {"f": 0.0}, "padding": {"s": "VkFMSUQ="}, "fused_ops": {"list": {"s": ["Qmlhc0FkZA==", "TGVha3lSZWx1"]}}, "leakyrelu_alpha": {"f": 0.1}}}, {"name": "detector/darknet-53/Conv_27/LeakyRelu", "op": "_FusedConv2D", "input": ["detector/darknet-53/Conv_26/LeakyRelu", "detector/darknet-53/Conv_27/Conv2D_weights", "detector/darknet-53/Conv_27/Conv2D_bn_offset"], "device": "/device:CPU:0", "attr": {"leakyrelu_alpha": {"f": 0.1}, "dilations": {"list": {"i": ["1", "1", "1", "1"]}}, "T": {"type": "DT_FLOAT"}, "data_format": {"s": "TkhXQw=="}, "strides": {"list": {"i": ["1", "1", "1", "1"]}}, "use_cudnn_on_gpu": {"b": true}, "explicit_paddings": {"list": {}}, "num_args": {"i": "1"}, "epsilon": {"f": 0.0}, "padding": {"s": "U0FNRQ=="}, "fused_ops": {"list": {"s": ["Qmlhc0FkZA==", "TGVha3lSZWx1"]}}}}, {"name": "detector/darknet-53/Conv_28/LeakyRelu", "op": "_FusedConv2D", "input": ["detector/darknet-53/Conv_27/LeakyRelu", "detector/darknet-53/Conv_28/Conv2D_weights", "detector/darknet-53/Conv_28/Conv2D_bn_offset"], "device": "/device:CPU:0", "attr": {"dilations": {"list": {"i": ["1", "1", "1", "1"]}}, "T": {"type": "DT_FLOAT"}, "strides": {"list": {"i": ["1", "1", "1", "1"]}}, "data_format": {"s": "TkhXQw=="}, "explicit_paddings": {"list": {}}, "use_cudnn_on_gpu": {"b": true}, "num_args": {"i": "1"}, "epsilon": {"f": 0.0}, "padding": {"s": "U0FNRQ=="}, "fused_ops": {"list": {"s": ["Qmlhc0FkZA==", "TGVha3lSZWx1"]}}, "leakyrelu_alpha": {"f": 0.1}}}, {"name": "detector/darknet-53/add_11", "op": "AddV2", "input": ["detector/darknet-53/Conv_28/LeakyRelu", "detector/darknet-53/Conv_26/LeakyRelu"], "attr": {"T": {"type": "DT_FLOAT"}}}, {"name": "detector/darknet-53/Conv_29/LeakyRelu", "op": "_FusedConv2D", "input": ["detector/darknet-53/add_11", "detector/darknet-53/Conv_29/Conv2D_weights", "detector/darknet-53/Conv_29/Conv2D_bn_offset"], "device": "/device:CPU:0", "attr": {"dilations": {"list": {"i": ["1", "1", "1", "1"]}}, "T": {"type": "DT_FLOAT"}, "data_format": {"s": "TkhXQw=="}, "strides": {"list": {"i": ["1", "1", "1", "1"]}}, "explicit_paddings": {"list": {}}, "use_cudnn_on_gpu": {"b": true}, "num_args": {"i": "1"}, "epsilon": {"f": 0.0}, "padding": {"s": "U0FNRQ=="}, "fused_ops": {"list": {"s": ["Qmlhc0FkZA==", "TGVha3lSZWx1"]}}, "leakyrelu_alpha": {"f": 0.1}}}, {"name": "detector/darknet-53/Conv_30/LeakyRelu", "op": "_FusedConv2D", "input": ["detector/darknet-53/Conv_29/LeakyRelu", "detector/darknet-53/Conv_30/Conv2D_weights", "detector/darknet-53/Conv_30/Conv2D_bn_offset"], "device": "/device:CPU:0", "attr": {"leakyrelu_alpha": {"f": 0.1}, "dilations": {"list": {"i": ["1", "1", "1", "1"]}}, "T": {"type": "DT_FLOAT"}, "strides": {"list": {"i": ["1", "1", "1", "1"]}}, "data_format": {"s": "TkhXQw=="}, "use_cudnn_on_gpu": {"b": true}, "explicit_paddings": {"list": {}}, "num_args": {"i": "1"}, "epsilon": {"f": 0.0}, "padding": {"s": "U0FNRQ=="}, "fused_ops": {"list": {"s": ["Qmlhc0FkZA==", "TGVha3lSZWx1"]}}}}, {"name": "detector/darknet-53/add_12", "op": "AddV2", "input": ["detector/darknet-53/Conv_30/LeakyRelu", "detector/darknet-53/add_11"], "attr": {"T": {"type": "DT_FLOAT"}}}, {"name": "detector/darknet-53/Conv_31/LeakyRelu", "op": "_FusedConv2D", "input": ["detector/darknet-53/add_12", "detector/darknet-53/Conv_31/Conv2D_weights", "detector/darknet-53/Conv_31/Conv2D_bn_offset"], "device": "/device:CPU:0", "attr": {"padding": {"s": "U0FNRQ=="}, "fused_ops": {"list": {"s": ["Qmlhc0FkZA==", "TGVha3lSZWx1"]}}, "leakyrelu_alpha": {"f": 0.1}, "dilations": {"list": {"i": ["1", "1", "1", "1"]}}, "T": {"type": "DT_FLOAT"}, "data_format": {"s": "TkhXQw=="}, "strides": {"list": {"i": ["1", "1", "1", "1"]}}, "explicit_paddings": {"list": {}}, "use_cudnn_on_gpu": {"b": true}, "num_args": {"i": "1"}, "epsilon": {"f": 0.0}}}, {"name": "detector/darknet-53/Conv_32/LeakyRelu", "op": "_FusedConv2D", "input": ["detector/darknet-53/Conv_31/LeakyRelu", "detector/darknet-53/Conv_32/Conv2D_weights", "detector/darknet-53/Conv_32/Conv2D_bn_offset"], "device": "/device:CPU:0", "attr": {"fused_ops": {"list": {"s": ["Qmlhc0FkZA==", "TGVha3lSZWx1"]}}, "leakyrelu_alpha": {"f": 0.1}, "dilations": {"list": {"i": ["1", "1", "1", "1"]}}, "T": {"type": "DT_FLOAT"}, "data_format": {"s": "TkhXQw=="}, "strides": {"list": {"i": ["1", "1", "1", "1"]}}, "use_cudnn_on_gpu": {"b": true}, "explicit_paddings": {"list": {}}, "num_args": {"i": "1"}, "epsilon": {"f": 0.0}, "padding": {"s": "U0FNRQ=="}}}, {"name": "detector/darknet-53/add_13", "op": "AddV2", "input": ["detector/darknet-53/Conv_32/LeakyRelu", "detector/darknet-53/add_12"], "attr": {"T": {"type": "DT_FLOAT"}}}, {"name": "detector/darknet-53/Conv_33/LeakyRelu", "op": "_FusedConv2D", "input": ["detector/darknet-53/add_13", "detector/darknet-53/Conv_33/Conv2D_weights", "detector/darknet-53/Conv_33/Conv2D_bn_offset"], "device": "/device:CPU:0", "attr": {"T": {"type": "DT_FLOAT"}, "data_format": {"s": "TkhXQw=="}, "strides": {"list": {"i": ["1", "1", "1", "1"]}}, "explicit_paddings": {"list": {}}, "use_cudnn_on_gpu": {"b": true}, "num_args": {"i": "1"}, "epsilon": {"f": 0.0}, "padding": {"s": "U0FNRQ=="}, "fused_ops": {"list": {"s": ["Qmlhc0FkZA==", "TGVha3lSZWx1"]}}, "leakyrelu_alpha": {"f": 0.1}, "dilations": {"list": {"i": ["1", "1", "1", "1"]}}}}, {"name": "detector/darknet-53/Conv_34/LeakyRelu", "op": "_FusedConv2D", "input": ["detector/darknet-53/Conv_33/LeakyRelu", "detector/darknet-53/Conv_34/Conv2D_weights", "detector/darknet-53/Conv_34/Conv2D_bn_offset"], "device": "/device:CPU:0", "attr": {"dilations": {"list": {"i": ["1", "1", "1", "1"]}}, "T": {"type": "DT_FLOAT"}, "data_format": {"s": "TkhXQw=="}, "strides": {"list": {"i": ["1", "1", "1", "1"]}}, "use_cudnn_on_gpu": {"b": true}, "explicit_paddings": {"list": {}}, "num_args": {"i": "1"}, "epsilon": {"f": 0.0}, "padding": {"s": "U0FNRQ=="}, "fused_ops": {"list": {"s": ["Qmlhc0FkZA==", "TGVha3lSZWx1"]}}, "leakyrelu_alpha": {"f": 0.1}}}, {"name": "detector/darknet-53/add_14", "op": "AddV2", "input": ["detector/darknet-53/Conv_34/LeakyRelu", "detector/darknet-53/add_13"], "attr": {"T": {"type": "DT_FLOAT"}}}, {"name": "detector/darknet-53/Conv_35/LeakyRelu", "op": "_FusedConv2D", "input": ["detector/darknet-53/add_14", "detector/darknet-53/Conv_35/Conv2D_weights", "detector/darknet-53/Conv_35/Conv2D_bn_offset"], "device": "/device:CPU:0", "attr": {"fused_ops": {"list": {"s": ["Qmlhc0FkZA==", "TGVha3lSZWx1"]}}, "leakyrelu_alpha": {"f": 0.1}, "dilations": {"list": {"i": ["1", "1", "1", "1"]}}, "T": {"type": "DT_FLOAT"}, "data_format": {"s": "TkhXQw=="}, "strides": {"list": {"i": ["1", "1", "1", "1"]}}, "use_cudnn_on_gpu": {"b": true}, "explicit_paddings": {"list": {}}, "num_args": {"i": "1"}, "epsilon": {"f": 0.0}, "padding": {"s": "U0FNRQ=="}}}, {"name": "detector/darknet-53/Conv_36/LeakyRelu", "op": "_FusedConv2D", "input": ["detector/darknet-53/Conv_35/LeakyRelu", "detector/darknet-53/Conv_36/Conv2D_weights", "detector/darknet-53/Conv_36/Conv2D_bn_offset"], "device": "/device:CPU:0", "attr": {"num_args": {"i": "1"}, "epsilon": {"f": 0.0}, "padding": {"s": "U0FNRQ=="}, "fused_ops": {"list": {"s": ["Qmlhc0FkZA==", "TGVha3lSZWx1"]}}, "leakyrelu_alpha": {"f": 0.1}, "dilations": {"list": {"i": ["1", "1", "1", "1"]}}, "T": {"type": "DT_FLOAT"}, "data_format": {"s": "TkhXQw=="}, "strides": {"list": {"i": ["1", "1", "1", "1"]}}, "explicit_paddings": {"list": {}}, "use_cudnn_on_gpu": {"b": true}}}, {"name": "detector/darknet-53/add_15", "op": "AddV2", "input": ["detector/darknet-53/Conv_36/LeakyRelu", "detector/darknet-53/add_14"], "attr": {"T": {"type": "DT_FLOAT"}}}, {"name": "detector/darknet-53/Conv_37/LeakyRelu", "op": "_FusedConv2D", "input": ["detector/darknet-53/add_15", "detector/darknet-53/Conv_37/Conv2D_weights", "detector/darknet-53/Conv_37/Conv2D_bn_offset"], "device": "/device:CPU:0", "attr": {"data_format": {"s": "TkhXQw=="}, "strides": {"list": {"i": ["1", "1", "1", "1"]}}, "use_cudnn_on_gpu": {"b": true}, "explicit_paddings": {"list": {}}, "num_args": {"i": "1"}, "epsilon": {"f": 0.0}, "padding": {"s": "U0FNRQ=="}, "fused_ops": {"list": {"s": ["Qmlhc0FkZA==", "TGVha3lSZWx1"]}}, "leakyrelu_alpha": {"f": 0.1}, "dilations": {"list": {"i": ["1", "1", "1", "1"]}}, "T": {"type": "DT_FLOAT"}}}, {"name": "detector/darknet-53/Conv_38/LeakyRelu", "op": "_FusedConv2D", "input": ["detector/darknet-53/Conv_37/LeakyRelu", "detector/darknet-53/Conv_38/Conv2D_weights", "detector/darknet-53/Conv_38/Conv2D_bn_offset"], "device": "/device:CPU:0", "attr": {"T": {"type": "DT_FLOAT"}, "strides": {"list": {"i": ["1", "1", "1", "1"]}}, "data_format": {"s": "TkhXQw=="}, "explicit_paddings": {"list": {}}, "use_cudnn_on_gpu": {"b": true}, "num_args": {"i": "1"}, "epsilon": {"f": 0.0}, "padding": {"s": "U0FNRQ=="}, "fused_ops": {"list": {"s": ["Qmlhc0FkZA==", "TGVha3lSZWx1"]}}, "leakyrelu_alpha": {"f": 0.1}, "dilations": {"list": {"i": ["1", "1", "1", "1"]}}}}, {"name": "detector/darknet-53/add_16", "op": "AddV2", "input": ["detector/darknet-53/Conv_38/LeakyRelu", "detector/darknet-53/add_15"], "attr": {"T": {"type": "DT_FLOAT"}}}, {"name": "detector/darknet-53/Conv_39/LeakyRelu", "op": "_FusedConv2D", "input": ["detector/darknet-53/add_16", "detector/darknet-53/Conv_39/Conv2D_weights", "detector/darknet-53/Conv_39/Conv2D_bn_offset"], "device": "/device:CPU:0", "attr": {"epsilon": {"f": 0.0}, "padding": {"s": "U0FNRQ=="}, "fused_ops": {"list": {"s": ["Qmlhc0FkZA==", "TGVha3lSZWx1"]}}, "leakyrelu_alpha": {"f": 0.1}, "dilations": {"list": {"i": ["1", "1", "1", "1"]}}, "T": {"type": "DT_FLOAT"}, "strides": {"list": {"i": ["1", "1", "1", "1"]}}, "data_format": {"s": "TkhXQw=="}, "use_cudnn_on_gpu": {"b": true}, "explicit_paddings": {"list": {}}, "num_args": {"i": "1"}}}, {"name": "detector/darknet-53/Conv_40/LeakyRelu", "op": "_FusedConv2D", "input": ["detector/darknet-53/Conv_39/LeakyRelu", "detector/darknet-53/Conv_40/Conv2D_weights", "detector/darknet-53/Conv_40/Conv2D_bn_offset"], "device": "/device:CPU:0", "attr": {"dilations": {"list": {"i": ["1", "1", "1", "1"]}}, "T": {"type": "DT_FLOAT"}, "data_format": {"s": "TkhXQw=="}, "strides": {"list": {"i": ["1", "1", "1", "1"]}}, "explicit_paddings": {"list": {}}, "use_cudnn_on_gpu": {"b": true}, "num_args": {"i": "1"}, "epsilon": {"f": 0.0}, "padding": {"s": "U0FNRQ=="}, "fused_ops": {"list": {"s": ["Qmlhc0FkZA==", "TGVha3lSZWx1"]}}, "leakyrelu_alpha": {"f": 0.1}}}, {"name": "detector/darknet-53/add_17", "op": "AddV2", "input": ["detector/darknet-53/Conv_40/LeakyRelu", "detector/darknet-53/add_16"], "attr": {"T": {"type": "DT_FLOAT"}}}, {"name": "detector/darknet-53/Conv_41/LeakyRelu", "op": "_FusedConv2D", "input": ["detector/darknet-53/add_17", "detector/darknet-53/Conv_41/Conv2D_weights", "detector/darknet-53/Conv_41/Conv2D_bn_offset"], "device": "/device:CPU:0", "attr": {"dilations": {"list": {"i": ["1", "1", "1", "1"]}}, "T": {"type": "DT_FLOAT"}, "strides": {"list": {"i": ["1", "1", "1", "1"]}}, "data_format": {"s": "TkhXQw=="}, "use_cudnn_on_gpu": {"b": true}, "explicit_paddings": {"list": {}}, "num_args": {"i": "1"}, "epsilon": {"f": 0.0}, "padding": {"s": "U0FNRQ=="}, "fused_ops": {"list": {"s": ["Qmlhc0FkZA==", "TGVha3lSZWx1"]}}, "leakyrelu_alpha": {"f": 0.1}}}, {"name": "detector/darknet-53/Conv_42/LeakyRelu", "op": "_FusedConv2D", "input": ["detector/darknet-53/Conv_41/LeakyRelu", "detector/darknet-53/Conv_42/Conv2D_weights", "detector/darknet-53/Conv_42/Conv2D_bn_offset"], "device": "/device:CPU:0", "attr": {"leakyrelu_alpha": {"f": 0.1}, "dilations": {"list": {"i": ["1", "1", "1", "1"]}}, "T": {"type": "DT_FLOAT"}, "strides": {"list": {"i": ["1", "1", "1", "1"]}}, "data_format": {"s": "TkhXQw=="}, "use_cudnn_on_gpu": {"b": true}, "explicit_paddings": {"list": {}}, "num_args": {"i": "1"}, "epsilon": {"f": 0.0}, "padding": {"s": "U0FNRQ=="}, "fused_ops": {"list": {"s": ["Qmlhc0FkZA==", "TGVha3lSZWx1"]}}}}, {"name": "detector/darknet-53/add_18", "op": "AddV2", "input": ["detector/darknet-53/Conv_42/LeakyRelu", "detector/darknet-53/add_17"], "attr": {"T": {"type": "DT_FLOAT"}}}, {"name": "detector/darknet-53/Pad_4", "op": "Pad", "input": ["detector/darknet-53/add_18", "detector/darknet-53/Pad_4/paddings"], "attr": {"T": {"type": "DT_FLOAT"}, "Tpaddings": {"type": "DT_INT32"}}}, {"name": "detector/darknet-53/Conv_43/LeakyRelu", "op": "_FusedConv2D", "input": ["detector/darknet-53/Pad_4", "detector/darknet-53/Conv_43/Conv2D_weights", "detector/darknet-53/Conv_43/Conv2D_bn_offset"], "device": "/device:CPU:0", "attr": {"leakyrelu_alpha": {"f": 0.1}, "dilations": {"list": {"i": ["1", "1", "1", "1"]}}, "T": {"type": "DT_FLOAT"}, "strides": {"list": {"i": ["1", "2", "2", "1"]}}, "data_format": {"s": "TkhXQw=="}, "explicit_paddings": {"list": {}}, "use_cudnn_on_gpu": {"b": true}, "num_args": {"i": "1"}, "epsilon": {"f": 0.0}, "padding": {"s": "VkFMSUQ="}, "fused_ops": {"list": {"s": ["Qmlhc0FkZA==", "TGVha3lSZWx1"]}}}}, {"name": "detector/darknet-53/Conv_44/LeakyRelu", "op": "_FusedConv2D", "input": ["detector/darknet-53/Conv_43/LeakyRelu", "detector/darknet-53/Conv_44/Conv2D_weights", "detector/darknet-53/Conv_44/Conv2D_bn_offset"], "device": "/device:CPU:0", "attr": {"leakyrelu_alpha": {"f": 0.1}, "dilations": {"list": {"i": ["1", "1", "1", "1"]}}, "T": {"type": "DT_FLOAT"}, "data_format": {"s": "TkhXQw=="}, "strides": {"list": {"i": ["1", "1", "1", "1"]}}, "use_cudnn_on_gpu": {"b": true}, "explicit_paddings": {"list": {}}, "num_args": {"i": "1"}, "epsilon": {"f": 0.0}, "padding": {"s": "U0FNRQ=="}, "fused_ops": {"list": {"s": ["Qmlhc0FkZA==", "TGVha3lSZWx1"]}}}}, {"name": "detector/darknet-53/Conv_45/LeakyRelu", "op": "_FusedConv2D", "input": ["detector/darknet-53/Conv_44/LeakyRelu", "detector/darknet-53/Conv_45/Conv2D_weights", "detector/darknet-53/Conv_45/Conv2D_bn_offset"], "device": "/device:CPU:0", "attr": {"strides": {"list": {"i": ["1", "1", "1", "1"]}}, "data_format": {"s": "TkhXQw=="}, "use_cudnn_on_gpu": {"b": true}, "explicit_paddings": {"list": {}}, "num_args": {"i": "1"}, "epsilon": {"f": 0.0}, "padding": {"s": "U0FNRQ=="}, "fused_ops": {"list": {"s": ["Qmlhc0FkZA==", "TGVha3lSZWx1"]}}, "leakyrelu_alpha": {"f": 0.1}, "dilations": {"list": {"i": ["1", "1", "1", "1"]}}, "T": {"type": "DT_FLOAT"}}}, {"name": "detector/darknet-53/add_19", "op": "AddV2", "input": ["detector/darknet-53/Conv_45/LeakyRelu", "detector/darknet-53/Conv_43/LeakyRelu"], "attr": {"T": {"type": "DT_FLOAT"}}}, {"name": "detector/darknet-53/Conv_46/LeakyRelu", "op": "_FusedConv2D", "input": ["detector/darknet-53/add_19", "detector/darknet-53/Conv_46/Conv2D_weights", "detector/darknet-53/Conv_46/Conv2D_bn_offset"], "device": "/device:CPU:0", "attr": {"dilations": {"list": {"i": ["1", "1", "1", "1"]}}, "T": {"type": "DT_FLOAT"}, "strides": {"list": {"i": ["1", "1", "1", "1"]}}, "data_format": {"s": "TkhXQw=="}, "explicit_paddings": {"list": {}}, "use_cudnn_on_gpu": {"b": true}, "num_args": {"i": "1"}, "epsilon": {"f": 0.0}, "padding": {"s": "U0FNRQ=="}, "fused_ops": {"list": {"s": ["Qmlhc0FkZA==", "TGVha3lSZWx1"]}}, "leakyrelu_alpha": {"f": 0.1}}}, {"name": "detector/darknet-53/Conv_47/LeakyRelu", "op": "_FusedConv2D", "input": ["detector/darknet-53/Conv_46/LeakyRelu", "detector/darknet-53/Conv_47/Conv2D_weights", "detector/darknet-53/Conv_47/Conv2D_bn_offset"], "device": "/device:CPU:0", "attr": {"epsilon": {"f": 0.0}, "padding": {"s": "U0FNRQ=="}, "fused_ops": {"list": {"s": ["Qmlhc0FkZA==", "TGVha3lSZWx1"]}}, "leakyrelu_alpha": {"f": 0.1}, "dilations": {"list": {"i": ["1", "1", "1", "1"]}}, "T": {"type": "DT_FLOAT"}, "data_format": {"s": "TkhXQw=="}, "strides": {"list": {"i": ["1", "1", "1", "1"]}}, "use_cudnn_on_gpu": {"b": true}, "explicit_paddings": {"list": {}}, "num_args": {"i": "1"}}}, {"name": "detector/darknet-53/add_20", "op": "AddV2", "input": ["detector/darknet-53/Conv_47/LeakyRelu", "detector/darknet-53/add_19"], "attr": {"T": {"type": "DT_FLOAT"}}}, {"name": "detector/darknet-53/Conv_48/LeakyRelu", "op": "_FusedConv2D", "input": ["detector/darknet-53/add_20", "detector/darknet-53/Conv_48/Conv2D_weights", "detector/darknet-53/Conv_48/Conv2D_bn_offset"], "device": "/device:CPU:0", "attr": {"dilations": {"list": {"i": ["1", "1", "1", "1"]}}, "T": {"type": "DT_FLOAT"}, "strides": {"list": {"i": ["1", "1", "1", "1"]}}, "data_format": {"s": "TkhXQw=="}, "use_cudnn_on_gpu": {"b": true}, "explicit_paddings": {"list": {}}, "num_args": {"i": "1"}, "epsilon": {"f": 0.0}, "padding": {"s": "U0FNRQ=="}, "fused_ops": {"list": {"s": ["Qmlhc0FkZA==", "TGVha3lSZWx1"]}}, "leakyrelu_alpha": {"f": 0.1}}}, {"name": "detector/darknet-53/Conv_49/LeakyRelu", "op": "_FusedConv2D", "input": ["detector/darknet-53/Conv_48/LeakyRelu", "detector/darknet-53/Conv_49/Conv2D_weights", "detector/darknet-53/Conv_49/Conv2D_bn_offset"], "device": "/device:CPU:0", "attr": {"padding": {"s": "U0FNRQ=="}, "fused_ops": {"list": {"s": ["Qmlhc0FkZA==", "TGVha3lSZWx1"]}}, "leakyrelu_alpha": {"f": 0.1}, "dilations": {"list": {"i": ["1", "1", "1", "1"]}}, "T": {"type": "DT_FLOAT"}, "data_format": {"s": "TkhXQw=="}, "strides": {"list": {"i": ["1", "1", "1", "1"]}}, "explicit_paddings": {"list": {}}, "use_cudnn_on_gpu": {"b": true}, "num_args": {"i": "1"}, "epsilon": {"f": 0.0}}}, {"name": "detector/darknet-53/add_21", "op": "AddV2", "input": ["detector/darknet-53/Conv_49/LeakyRelu", "detector/darknet-53/add_20"], "attr": {"T": {"type": "DT_FLOAT"}}}, {"name": "detector/darknet-53/Conv_50/LeakyRelu", "op": "_FusedConv2D", "input": ["detector/darknet-53/add_21", "detector/darknet-53/Conv_50/Conv2D_weights", "detector/darknet-53/Conv_50/Conv2D_bn_offset"], "device": "/device:CPU:0", "attr": {"leakyrelu_alpha": {"f": 0.1}, "dilations": {"list": {"i": ["1", "1", "1", "1"]}}, "T": {"type": "DT_FLOAT"}, "strides": {"list": {"i": ["1", "1", "1", "1"]}}, "data_format": {"s": "TkhXQw=="}, "explicit_paddings": {"list": {}}, "use_cudnn_on_gpu": {"b": true}, "num_args": {"i": "1"}, "epsilon": {"f": 0.0}, "padding": {"s": "U0FNRQ=="}, "fused_ops": {"list": {"s": ["Qmlhc0FkZA==", "TGVha3lSZWx1"]}}}}, {"name": "detector/darknet-53/Conv_51/LeakyRelu", "op": "_FusedConv2D", "input": ["detector/darknet-53/Conv_50/LeakyRelu", "detector/darknet-53/Conv_51/Conv2D_weights", "detector/darknet-53/Conv_51/Conv2D_bn_offset"], "device": "/device:CPU:0", "attr": {"T": {"type": "DT_FLOAT"}, "strides": {"list": {"i": ["1", "1", "1", "1"]}}, "data_format": {"s": "TkhXQw=="}, "explicit_paddings": {"list": {}}, "use_cudnn_on_gpu": {"b": true}, "num_args": {"i": "1"}, "epsilon": {"f": 0.0}, "padding": {"s": "U0FNRQ=="}, "fused_ops": {"list": {"s": ["Qmlhc0FkZA==", "TGVha3lSZWx1"]}}, "leakyrelu_alpha": {"f": 0.1}, "dilations": {"list": {"i": ["1", "1", "1", "1"]}}}}, {"name": "detector/darknet-53/add_22", "op": "AddV2", "input": ["detector/darknet-53/Conv_51/LeakyRelu", "detector/darknet-53/add_21"], "attr": {"T": {"type": "DT_FLOAT"}}}, {"name": "detector/yolo-v3/Conv/LeakyRelu", "op": "_FusedConv2D", "input": ["detector/darknet-53/add_22", "detector/yolo-v3/Conv/Conv2D_weights", "detector/yolo-v3/Conv/Conv2D_bn_offset"], "device": "/device:CPU:0", "attr": {"dilations": {"list": {"i": ["1", "1", "1", "1"]}}, "T": {"type": "DT_FLOAT"}, "strides": {"list": {"i": ["1", "1", "1", "1"]}}, "data_format": {"s": "TkhXQw=="}, "use_cudnn_on_gpu": {"b": true}, "explicit_paddings": {"list": {}}, "num_args": {"i": "1"}, "epsilon": {"f": 0.0}, "padding": {"s": "U0FNRQ=="}, "fused_ops": {"list": {"s": ["Qmlhc0FkZA==", "TGVha3lSZWx1"]}}, "leakyrelu_alpha": {"f": 0.1}}}, {"name": "detector/yolo-v3/Conv_1/LeakyRelu", "op": "_FusedConv2D", "input": ["detector/yolo-v3/Conv/LeakyRelu", "detector/yolo-v3/Conv_1/Conv2D_weights", "detector/yolo-v3/Conv_1/Conv2D_bn_offset"], "device": "/device:CPU:0", "attr": {"strides": {"list": {"i": ["1", "1", "1", "1"]}}, "data_format": {"s": "TkhXQw=="}, "explicit_paddings": {"list": {}}, "use_cudnn_on_gpu": {"b": true}, "num_args": {"i": "1"}, "epsilon": {"f": 0.0}, "padding": {"s": "U0FNRQ=="}, "fused_ops": {"list": {"s": ["Qmlhc0FkZA==", "TGVha3lSZWx1"]}}, "leakyrelu_alpha": {"f": 0.1}, "dilations": {"list": {"i": ["1", "1", "1", "1"]}}, "T": {"type": "DT_FLOAT"}}}, {"name": "detector/yolo-v3/Conv_2/LeakyRelu", "op": "_FusedConv2D", "input": ["detector/yolo-v3/Conv_1/LeakyRelu", "detector/yolo-v3/Conv_2/Conv2D_weights", "detector/yolo-v3/Conv_2/Conv2D_bn_offset"], "device": "/device:CPU:0", "attr": {"leakyrelu_alpha": {"f": 0.1}, "dilations": {"list": {"i": ["1", "1", "1", "1"]}}, "T": {"type": "DT_FLOAT"}, "data_format": {"s": "TkhXQw=="}, "strides": {"list": {"i": ["1", "1", "1", "1"]}}, "use_cudnn_on_gpu": {"b": true}, "explicit_paddings": {"list": {}}, "num_args": {"i": "1"}, "epsilon": {"f": 0.0}, "padding": {"s": "U0FNRQ=="}, "fused_ops": {"list": {"s": ["Qmlhc0FkZA==", "TGVha3lSZWx1"]}}}}, {"name": "detector/yolo-v3/Conv_3/LeakyRelu", "op": "_FusedConv2D", "input": ["detector/yolo-v3/Conv_2/LeakyRelu", "detector/yolo-v3/Conv_3/Conv2D_weights", "detector/yolo-v3/Conv_3/Conv2D_bn_offset"], "device": "/device:CPU:0", "attr": {"leakyrelu_alpha": {"f": 0.1}, "dilations": {"list": {"i": ["1", "1", "1", "1"]}}, "T": {"type": "DT_FLOAT"}, "data_format": {"s": "TkhXQw=="}, "strides": {"list": {"i": ["1", "1", "1", "1"]}}, "explicit_paddings": {"list": {}}, "use_cudnn_on_gpu": {"b": true}, "num_args": {"i": "1"}, "epsilon": {"f": 0.0}, "padding": {"s": "U0FNRQ=="}, "fused_ops": {"list": {"s": ["Qmlhc0FkZA==", "TGVha3lSZWx1"]}}}}, {"name": "detector/yolo-v3/Conv_4/LeakyRelu", "op": "_FusedConv2D", "input": ["detector/yolo-v3/Conv_3/LeakyRelu", "detector/yolo-v3/Conv_4/Conv2D_weights", "detector/yolo-v3/Conv_4/Conv2D_bn_offset"], "device": "/device:CPU:0", "attr": {"leakyrelu_alpha": {"f": 0.1}, "dilations": {"list": {"i": ["1", "1", "1", "1"]}}, "T": {"type": "DT_FLOAT"}, "data_format": {"s": "TkhXQw=="}, "strides": {"list": {"i": ["1", "1", "1", "1"]}}, "use_cudnn_on_gpu": {"b": true}, "explicit_paddings": {"list": {}}, "num_args": {"i": "1"}, "epsilon": {"f": 0.0}, "padding": {"s": "U0FNRQ=="}, "fused_ops": {"list": {"s": ["Qmlhc0FkZA==", "TGVha3lSZWx1"]}}}}, {"name": "detector/yolo-v3/Conv_5/LeakyRelu", "op": "_FusedConv2D", "input": ["detector/yolo-v3/Conv_4/LeakyRelu", "detector/yolo-v3/Conv_5/Conv2D_weights", "detector/yolo-v3/Conv_5/Conv2D_bn_offset"], "device": "/device:CPU:0", "attr": {"data_format": {"s": "TkhXQw=="}, "strides": {"list": {"i": ["1", "1", "1", "1"]}}, "explicit_paddings": {"list": {}}, "use_cudnn_on_gpu": {"b": true}, "num_args": {"i": "1"}, "epsilon": {"f": 0.0}, "padding": {"s": "U0FNRQ=="}, "fused_ops": {"list": {"s": ["Qmlhc0FkZA==", "TGVha3lSZWx1"]}}, "leakyrelu_alpha": {"f": 0.1}, "dilations": {"list": {"i": ["1", "1", "1", "1"]}}, "T": {"type": "DT_FLOAT"}}}, {"name": "detector/yolo-v3/Conv_6/BiasAdd", "op": "_FusedConv2D", "input": ["detector/yolo-v3/Conv_5/LeakyRelu", "detector/yolo-v3/Conv_6/weights", "detector/yolo-v3/Conv_6/biases"], "device": "/device:CPU:0", "attr": {"use_cudnn_on_gpu": {"b": true}, "explicit_paddings": {"list": {}}, "num_args": {"i": "1"}, "epsilon": {"f": 0.0}, "padding": {"s": "U0FNRQ=="}, "fused_ops": {"list": {"s": ["Qmlhc0FkZA=="]}}, "dilations": {"list": {"i": ["1", "1", "1", "1"]}}, "T": {"type": "DT_FLOAT"}, "strides": {"list": {"i": ["1", "1", "1", "1"]}}, "data_format": {"s": "TkhXQw=="}}}], "library": {}, "versions": {}}, "weightsManifest": [{"paths": ["group1-shard1of54.bin", "group1-shard2of54.bin", "group1-shard3of54.bin", "group1-shard4of54.bin", "group1-shard5of54.bin", "group1-shard6of54.bin", "group1-shard7of54.bin", "group1-shard8of54.bin", "group1-shard9of54.bin", "group1-shard10of54.bin", "group1-shard11of54.bin", "group1-shard12of54.bin", "group1-shard13of54.bin", "group1-shard14of54.bin", "group1-shard15of54.bin", "group1-shard16of54.bin", "group1-shard17of54.bin", "group1-shard18of54.bin", "group1-shard19of54.bin", "group1-shard20of54.bin", "group1-shard21of54.bin", "group1-shard22of54.bin", "group1-shard23of54.bin", "group1-shard24of54.bin", "group1-shard25of54.bin", "group1-shard26of54.bin", "group1-shard27of54.bin", "group1-shard28of54.bin", "group1-shard29of54.bin", "group1-shard30of54.bin", "group1-shard31of54.bin", "group1-shard32of54.bin", "group1-shard33of54.bin", "group1-shard34of54.bin", "group1-shard35of54.bin", "group1-shard36of54.bin", "group1-shard37of54.bin", "group1-shard38of54.bin", "group1-shard39of54.bin", "group1-shard40of54.bin", "group1-shard41of54.bin", "group1-shard42of54.bin", "group1-shard43of54.bin", "group1-shard44of54.bin", "group1-shard45of54.bin", "group1-shard46of54.bin", "group1-shard47of54.bin", "group1-shard48of54.bin", "group1-shard49of54.bin", "group1-shard50of54.bin", "group1-shard51of54.bin", "group1-shard52of54.bin", "group1-shard53of54.bin", "group1-shard54of54.bin"], "weights": [{"name": "detector/darknet-53/Pad/paddings", "shape": [4, 2], "dtype": "int32"}, {"name": "detector/darknet-53/Pad_1/paddings", "shape": [4, 2], "dtype": "int32"}, {"name": "detector/darknet-53/Pad_2/paddings", "shape": [4, 2], "dtype": "int32"}, {"name": "detector/darknet-53/Pad_3/paddings", "shape": [4, 2], "dtype": "int32"}, {"name": "detector/darknet-53/Pad_4/paddings", "shape": [4, 2], "dtype": "int32"}, {"name": "detector/yolo-v3/Conv_6/weights", "shape": [1, 1, 1024, 51], "dtype": "float32"}, {"name": "detector/yolo-v3/Conv_6/biases", "shape": [51], "dtype": "float32"}, {"name": "detector/darknet-53/Conv/Conv2D_weights", "shape": [3, 3, 3, 32], "dtype": "float32"}, {"name": "detector/darknet-53/Conv/Conv2D_bn_offset", "shape": [32], "dtype": "float32"}, {"name": "detector/darknet-53/Conv_1/Conv2D_weights", "shape": [3, 3, 32, 64], "dtype": "float32"}, {"name": "detector/darknet-53/Conv_37/Conv2D_weights", "shape": [1, 1, 512, 256], "dtype": "float32"}, {"name": "detector/darknet-53/Conv_1/Conv2D_bn_offset", "shape": [64], "dtype": "float32"}, {"name": "detector/darknet-53/Conv_50/Conv2D_weights", "shape": [1, 1, 1024, 512], "dtype": "float32"}, {"name": "detector/darknet-53/Conv_2/Conv2D_weights", "shape": [1, 1, 64, 32], "dtype": "float32"}, {"name": "detector/darknet-53/Conv_37/Conv2D_bn_offset", "shape": [256], "dtype": "float32"}, {"name": "detector/darknet-53/Conv_2/Conv2D_bn_offset", "shape": [32], "dtype": "float32"}, {"name": "detector/yolo-v3/Conv_3/Conv2D_weights", "shape": [3, 3, 512, 1024], "dtype": "float32"}, {"name": "detector/darknet-53/Conv_3/Conv2D_weights", "shape": [3, 3, 32, 64], "dtype": "float32"}, {"name": "detector/darknet-53/Conv_3/Conv2D_bn_offset", "shape": [64], "dtype": "float32"}, {"name": "detector/darknet-53/Conv_38/Conv2D_weights", "shape": [3, 3, 256, 512], "dtype": "float32"}, {"name": "detector/darknet-53/Conv_4/Conv2D_weights", "shape": [3, 3, 64, 128], "dtype": "float32"}, {"name": "detector/darknet-53/Conv_50/Conv2D_bn_offset", "shape": [512], "dtype": "float32"}, {"name": "detector/darknet-53/Conv_4/Conv2D_bn_offset", "shape": [128], "dtype": "float32"}, {"name": "detector/darknet-53/Conv_38/Conv2D_bn_offset", "shape": [512], "dtype": "float32"}, {"name": "detector/darknet-53/Conv_5/Conv2D_weights", "shape": [1, 1, 128, 64], "dtype": "float32"}, {"name": "detector/yolo-v3/Conv_5/Conv2D_weights", "shape": [3, 3, 512, 1024], "dtype": "float32"}, {"name": "detector/darknet-53/Conv_5/Conv2D_bn_offset", "shape": [64], "dtype": "float32"}, {"name": "detector/darknet-53/Conv_6/Conv2D_weights", "shape": [3, 3, 64, 128], "dtype": "float32"}, {"name": "detector/darknet-53/Conv_6/Conv2D_bn_offset", "shape": [128], "dtype": "float32"}, {"name": "detector/darknet-53/Conv_39/Conv2D_weights", "shape": [1, 1, 512, 256], "dtype": "float32"}, {"name": "detector/darknet-53/Conv_7/Conv2D_weights", "shape": [1, 1, 128, 64], "dtype": "float32"}, {"name": "detector/darknet-53/Conv_7/Conv2D_bn_offset", "shape": [64], "dtype": "float32"}, {"name": "detector/darknet-53/Conv_39/Conv2D_bn_offset", "shape": [256], "dtype": "float32"}, {"name": "detector/darknet-53/Conv_8/Conv2D_weights", "shape": [3, 3, 64, 128], "dtype": "float32"}, {"name": "detector/darknet-53/Conv_51/Conv2D_weights", "shape": [3, 3, 512, 1024], "dtype": "float32"}, {"name": "detector/darknet-53/Conv_8/Conv2D_bn_offset", "shape": [128], "dtype": "float32"}, {"name": "detector/darknet-53/Conv_9/Conv2D_weights", "shape": [3, 3, 128, 256], "dtype": "float32"}, {"name": "detector/darknet-53/Conv_40/Conv2D_weights", "shape": [3, 3, 256, 512], "dtype": "float32"}, {"name": "detector/darknet-53/Conv_9/Conv2D_bn_offset", "shape": [256], "dtype": "float32"}, {"name": "detector/yolo-v3/Conv_3/Conv2D_bn_offset", "shape": [1024], "dtype": "float32"}, {"name": "detector/darknet-53/Conv_10/Conv2D_weights", "shape": [1, 1, 256, 128], "dtype": "float32"}, {"name": "detector/darknet-53/Conv_40/Conv2D_bn_offset", "shape": [512], "dtype": "float32"}, {"name": "detector/darknet-53/Conv_10/Conv2D_bn_offset", "shape": [128], "dtype": "float32"}, {"name": "detector/darknet-53/Conv_51/Conv2D_bn_offset", "shape": [1024], "dtype": "float32"}, {"name": "detector/darknet-53/Conv_11/Conv2D_weights", "shape": [3, 3, 128, 256], "dtype": "float32"}, {"name": "detector/darknet-53/Conv_11/Conv2D_bn_offset", "shape": [256], "dtype": "float32"}, {"name": "detector/darknet-53/Conv_12/Conv2D_weights", "shape": [1, 1, 256, 128], "dtype": "float32"}, {"name": "detector/darknet-53/Conv_41/Conv2D_weights", "shape": [1, 1, 512, 256], "dtype": "float32"}, {"name": "detector/darknet-53/Conv_12/Conv2D_bn_offset", "shape": [128], "dtype": "float32"}, {"name": "detector/darknet-53/Conv_13/Conv2D_weights", "shape": [3, 3, 128, 256], "dtype": "float32"}, {"name": "detector/darknet-53/Conv_41/Conv2D_bn_offset", "shape": [256], "dtype": "float32"}, {"name": "detector/darknet-53/Conv_13/Conv2D_bn_offset", "shape": [256], "dtype": "float32"}, {"name": "detector/darknet-53/Conv_14/Conv2D_weights", "shape": [1, 1, 256, 128], "dtype": "float32"}, {"name": "detector/darknet-53/Conv_14/Conv2D_bn_offset", "shape": [128], "dtype": "float32"}, {"name": "detector/darknet-53/Conv_42/Conv2D_weights", "shape": [3, 3, 256, 512], "dtype": "float32"}, {"name": "detector/darknet-53/Conv_15/Conv2D_weights", "shape": [3, 3, 128, 256], "dtype": "float32"}, {"name": "detector/darknet-53/Conv_15/Conv2D_bn_offset", "shape": [256], "dtype": "float32"}, {"name": "detector/darknet-53/Conv_42/Conv2D_bn_offset", "shape": [512], "dtype": "float32"}, {"name": "detector/darknet-53/Conv_16/Conv2D_weights", "shape": [1, 1, 256, 128], "dtype": "float32"}, {"name": "detector/yolo-v3/Conv/Conv2D_weights", "shape": [1, 1, 1024, 512], "dtype": "float32"}, {"name": "detector/darknet-53/Conv_16/Conv2D_bn_offset", "shape": [128], "dtype": "float32"}, {"name": "detector/darknet-53/Conv_17/Conv2D_weights", "shape": [3, 3, 128, 256], "dtype": "float32"}, {"name": "detector/darknet-53/Conv_17/Conv2D_bn_offset", "shape": [256], "dtype": "float32"}, {"name": "detector/darknet-53/Conv_18/Conv2D_weights", "shape": [1, 1, 256, 128], "dtype": "float32"}, {"name": "detector/darknet-53/Conv_43/Conv2D_weights", "shape": [3, 3, 512, 1024], "dtype": "float32"}, {"name": "detector/darknet-53/Conv_18/Conv2D_bn_offset", "shape": [128], "dtype": "float32"}, {"name": "detector/darknet-53/Conv_19/Conv2D_weights", "shape": [3, 3, 128, 256], "dtype": "float32"}, {"name": "detector/darknet-53/Conv_43/Conv2D_bn_offset", "shape": [1024], "dtype": "float32"}, {"name": "detector/darknet-53/Conv_19/Conv2D_bn_offset", "shape": [256], "dtype": "float32"}, {"name": "detector/yolo-v3/Conv/Conv2D_bn_offset", "shape": [512], "dtype": "float32"}, {"name": "detector/darknet-53/Conv_20/Conv2D_weights", "shape": [1, 1, 256, 128], "dtype": "float32"}, {"name": "detector/darknet-53/Conv_20/Conv2D_bn_offset", "shape": [128], "dtype": "float32"}, {"name": "detector/darknet-53/Conv_44/Conv2D_weights", "shape": [1, 1, 1024, 512], "dtype": "float32"}, {"name": "detector/darknet-53/Conv_21/Conv2D_weights", "shape": [3, 3, 128, 256], "dtype": "float32"}, {"name": "detector/yolo-v3/Conv_4/Conv2D_weights", "shape": [1, 1, 1024, 512], "dtype": "float32"}, {"name": "detector/darknet-53/Conv_21/Conv2D_bn_offset", "shape": [256], "dtype": "float32"}, {"name": "detector/darknet-53/Conv_44/Conv2D_bn_offset", "shape": [512], "dtype": "float32"}, {"name": "detector/darknet-53/Conv_22/Conv2D_weights", "shape": [1, 1, 256, 128], "dtype": "float32"}, {"name": "detector/darknet-53/Conv_22/Conv2D_bn_offset", "shape": [128], "dtype": "float32"}, {"name": "detector/darknet-53/Conv_23/Conv2D_weights", "shape": [3, 3, 128, 256], "dtype": "float32"}, {"name": "detector/darknet-53/Conv_45/Conv2D_weights", "shape": [3, 3, 512, 1024], "dtype": "float32"}, {"name": "detector/darknet-53/Conv_23/Conv2D_bn_offset", "shape": [256], "dtype": "float32"}, {"name": "detector/yolo-v3/Conv_1/Conv2D_weights", "shape": [3, 3, 512, 1024], "dtype": "float32"}, {"name": "detector/darknet-53/Conv_24/Conv2D_weights", "shape": [1, 1, 256, 128], "dtype": "float32"}, {"name": "detector/darknet-53/Conv_45/Conv2D_bn_offset", "shape": [1024], "dtype": "float32"}, {"name": "detector/darknet-53/Conv_24/Conv2D_bn_offset", "shape": [128], "dtype": "float32"}, {"name": "detector/yolo-v3/Conv_5/Conv2D_bn_offset", "shape": [1024], "dtype": "float32"}, {"name": "detector/darknet-53/Conv_25/Conv2D_weights", "shape": [3, 3, 128, 256], "dtype": "float32"}, {"name": "detector/darknet-53/Conv_25/Conv2D_bn_offset", "shape": [256], "dtype": "float32"}, {"name": "detector/darknet-53/Conv_26/Conv2D_weights", "shape": [3, 3, 256, 512], "dtype": "float32"}, {"name": "detector/darknet-53/Conv_46/Conv2D_weights", "shape": [1, 1, 1024, 512], "dtype": "float32"}, {"name": "detector/darknet-53/Conv_26/Conv2D_bn_offset", "shape": [512], "dtype": "float32"}, {"name": "detector/yolo-v3/Conv_1/Conv2D_bn_offset", "shape": [1024], "dtype": "float32"}, {"name": "detector/darknet-53/Conv_27/Conv2D_weights", "shape": [1, 1, 512, 256], "dtype": "float32"}, {"name": "detector/darknet-53/Conv_46/Conv2D_bn_offset", "shape": [512], "dtype": "float32"}, {"name": "detector/darknet-53/Conv_27/Conv2D_bn_offset", "shape": [256], "dtype": "float32"}, {"name": "detector/yolo-v3/Conv_4/Conv2D_bn_offset", "shape": [512], "dtype": "float32"}, {"name": "detector/darknet-53/Conv_28/Conv2D_weights", "shape": [3, 3, 256, 512], "dtype": "float32"}, {"name": "detector/darknet-53/Conv_28/Conv2D_bn_offset", "shape": [512], "dtype": "float32"}, {"name": "detector/darknet-53/Conv_47/Conv2D_weights", "shape": [3, 3, 512, 1024], "dtype": "float32"}, {"name": "detector/darknet-53/Conv_29/Conv2D_weights", "shape": [1, 1, 512, 256], "dtype": "float32"}, {"name": "detector/darknet-53/Conv_29/Conv2D_bn_offset", "shape": [256], "dtype": "float32"}, {"name": "detector/darknet-53/Conv_47/Conv2D_bn_offset", "shape": [1024], "dtype": "float32"}, {"name": "detector/darknet-53/Conv_30/Conv2D_weights", "shape": [3, 3, 256, 512], "dtype": "float32"}, {"name": "detector/yolo-v3/Conv_2/Conv2D_weights", "shape": [1, 1, 1024, 512], "dtype": "float32"}, {"name": "detector/darknet-53/Conv_30/Conv2D_bn_offset", "shape": [512], "dtype": "float32"}, {"name": "detector/darknet-53/Conv_31/Conv2D_weights", "shape": [1, 1, 512, 256], "dtype": "float32"}, {"name": "detector/darknet-53/Conv_31/Conv2D_bn_offset", "shape": [256], "dtype": "float32"}, {"name": "detector/darknet-53/Conv_48/Conv2D_weights", "shape": [1, 1, 1024, 512], "dtype": "float32"}, {"name": "detector/darknet-53/Conv_32/Conv2D_weights", "shape": [3, 3, 256, 512], "dtype": "float32"}, {"name": "detector/darknet-53/Conv_32/Conv2D_bn_offset", "shape": [512], "dtype": "float32"}, {"name": "detector/darknet-53/Conv_48/Conv2D_bn_offset", "shape": [512], "dtype": "float32"}, {"name": "detector/darknet-53/Conv_33/Conv2D_weights", "shape": [1, 1, 512, 256], "dtype": "float32"}, {"name": "detector/yolo-v3/Conv_2/Conv2D_bn_offset", "shape": [512], "dtype": "float32"}, {"name": "detector/darknet-53/Conv_33/Conv2D_bn_offset", "shape": [256], "dtype": "float32"}, {"name": "detector/darknet-53/Conv_34/Conv2D_weights", "shape": [3, 3, 256, 512], "dtype": "float32"}, {"name": "detector/darknet-53/Conv_49/Conv2D_weights", "shape": [3, 3, 512, 1024], "dtype": "float32"}, {"name": "detector/darknet-53/Conv_34/Conv2D_bn_offset", "shape": [512], "dtype": "float32"}, {"name": "detector/darknet-53/Conv_35/Conv2D_weights", "shape": [1, 1, 512, 256], "dtype": "float32"}, {"name": "detector/darknet-53/Conv_49/Conv2D_bn_offset", "shape": [1024], "dtype": "float32"}, {"name": "detector/darknet-53/Conv_35/Conv2D_bn_offset", "shape": [256], "dtype": "float32"}, {"name": "detector/darknet-53/Conv_36/Conv2D_weights", "shape": [3, 3, 256, 512], "dtype": "float32"}, {"name": "detector/darknet-53/Conv_36/Conv2D_bn_offset", "shape": [512], "dtype": "float32"}]}]}